expose/demo_output/man-in-red-crew-neck-sweatshirt-photography-941693.png_000/man-in-red-crew-neck-sweatshirt-photography-941693.png_000_params.npz (npz, 123920 bytes, 15 tensors)

global_orient f4 [1, 3, 3]
0	0x3f7fe644	0.9996073
1	0xbaa6c165	-0.0012722431
2	0xbce549eb	-0.027989348
3	0xbbb93d84	-0.005653085
4	0xbf7cd22b	-0.9875819
5	0xbe20c57d	-0.15700336
6	0xbce0ce1a	-0.027442027
7	0x3e20ded0	0.15709996
8	0xbf7cb939	-0.9872013

body_pose f4 [21, 3, 3]
0	0x3f7d27ee	0.9888905
1	0xbe0f6781	-0.14004327
2	0x3d4c1e6b	0.049833696
3	0x3df3ea04	0.11909869
4	0x3f72736c	0.9470737
5	0x3e98a152	0.29810578
6	0xbdb62835	-0.08894388
7	0xbe93e54e	-0.28885883
8	0x3f7406f5	0.95323116
9	0x3f7e2d92	0.99288285
10	0x3dc41910	0.09575093
11	0xbd9109f0	-0.070819736
12	0xbd917969	-0.07103235
13	0x3f7412df	0.95341295
14	0x3e961c80	0.2931862
15	0x3dc3c66c	0.0955933
16	0xbe9277a4	-0.28606904
17	0x3f7413e9	0.9534288
18	0x3f7ff46a	0.9998232
19	0xbc719262	-0.014744373
20	0xbc3f1269	-0.011662104
21	0x3c3b7c82	0.011443259
22	0x3f783303	0.9695284
23	0xbe7a95af	-0.24471162
24	0x3c745d76	0.014914861
25	0x3e7a675e	0.24453494
26	0x3f7832d6	0.9695257
27	0x3f7f66bd	0.9976614
28	0x3d799f2c	0.060942814
29	0xbcfd8857	-0.030948801
30	0xbd8bf84f	-0.068344705
31	0x3f622137	0.8833193
32	0xbeed7258	-0.463763
33	0xba72930f	-0.0009253481
34	0x3eedf96c	0.46479356
35	0x3f62aacd	0.8854187
36	0x3f7f53c1	0.99737173
37	0xbd7bd9f8	-0.061487168
38	0x3d1cfcfc	0.038327202
39	0x3d943483	0.07236578
40	0x3f5f1c73	0.87152785
41	0xbef84edb	-0.48497662
42	0xbb6ad739	-0.003583385
43	0x3ef91352	0.48647553
44	0x3f5fa9f0	0.8736868
45	0x3f7ffe58	0.9999747
46	0xbb3aac31	-0.0028483982
47	0x3bd53a0c	0.006507164
48	0x3b487f22	0.0030593355
49	0x3f7fdcc6	0.9994625
50	0xbd05b04f	-0.032638844
51	0xbbd210d6	-0.0064106984
52	0x3d05c453	0.032657932
53	0x3f7fdbb0	0.9994459
54	0x3f7ea5ef	0.99471945
55	0x3d8aa5d9	0.06769914
56	0x3d9df923	0.07713535
57	0xbd8c1c65	-0.06841353
58	0x3f7f64ff	0.9976348
59	0x3bda08af	0.006653867
60	0xbd9cad52	-0.07650246
61	0xbc42e6bf	-0.0118958345
62	0x3f7f3b48	0.9969983
63	0x3f7d7891	0.99012095
64	0xbda27dc2	-0.07934143
65	0xbdecc430	-0.11560857
66	0x3da62885	0.08113197
67	0x3f7f2413	0.9966442
68	0x3c31e542	0.010857882
69	0x3dea3520	0.11435914
70	0xbca4e805	-0.020130167
71	0x3f7e44ad	0.9932354
72	0x3f7fff28	0.9999871
73	0x3b84b6e9	0.004050125
74	0xbb485b5c	-0.0030572033
75	0xbb84d673	-0.0040538847
76	0x3f7fff6a	0.99999106
77	0xbaa085ac	-0.0012246869
78	0x3b4807ae	0.0030522156
79	0x3aa22501	0.0012370647
80	0x3f7fffa5	0.9999946
81	0x3f7ba513	0.9829876
82	0xbe1e784b	-0.15475576
83	0x3dca98c5	0.0989242
84	0x3e069246	0.13141736
85	0x3f7807bb	0.96886796
86	0x3e56db04	0.20981985
87	0xbe036517	-0.12831531
88	0xbe45e351	-0.19324996
89	0x3f79045c	0.97272277
90	0x3f7bfd19	0.9843307
91	0x3e1cc37a	0.15308943
92	0xbdb33489	-0.08750255
93	0xbe07af18	-0.13250387
94	0x3f7836dc	0.9695871
95	0x3e52b6ea	0.20577589
96	0x3dee4578	0.11634344
97	0xbe438a42	-0.1909571
98	0x3f798495	0.9746793
99	0x3f7fcfe2	0.9992658
100	0x3cf2f8d4	0.029659666
101	0x3cc6a8f7	0.02425049
102	0xbd094b9a	-0.033519365
103	0x3f7bbe47	0.98337215
104	0x3e36c3da	0.17848149
105	0xbc97fda1	-0.018553557
106	0xbe377697	-0.17916332
107	0x3f7bd01d	0.9836443
108	0x3f7645a5	0.9620002
109	0x3e588195	0.21143182
110	0xbe30ecc9	-0.17277826
111	0xbe52a1f6	-0.20569596
112	0x3f7a3093	0.9773037
113	0x3d4f845b	0.050663333
114	0x3e37e0d8	0.17956865
115	0xbc583dde	-0.013198344
116	0x3f7bd0f2	0.983657
117	0x3f727eb3	0.9472458
118	0xbe60ec82	-0.2196522
119	0x3e6f01f2	0.23340586
120	0x3e51fd17	0.20506702
121	0x3f799afd	0.9750212
122	0x3daec1cd	0.08533058
123	0xbe7c3af7	-0.24631868
124	0xbd070682	-0.03296519
125	0x3f77f803	0.9686281
126	0x3f7f937c	0.9983442
127	0x3d6837e5	0.05669393
128	0xbc1f6ab4	-0.00973003
129	0xbd5d96fd	-0.05409907
130	0x3f7b9df4	0.9828789
131	0x3e345be2	0.17613176
132	0x3ca0254f	0.01954904
133	0xbe338571	-0.17531373
134	0x3f7bfc4d	0.98431855
135	0x3f171f90	0.59032536
136	0x3f3fcb23	0.7491934
137	0xbe99cac4	-0.3003751
138	0xbf3cb05a	-0.7370659
139	0x3f26eb72	0.6520301
140	0x3e3600c6	0.17773733
141	0x3ea8746c	0.32901323
142	0x3dee899c	0.11647341
143	0x3f6fe6c2	0.93711483
144	0x3f0e7749	0.55650765
145	0xbf3f1364	-0.7463896
146	0x3ebadd1a	0.36496812
147	0x3f3e50db	0.74342126
148	0x3f24bad5	0.64347583
149	0x3e3ac2af	0.18238328
150	0xbebdf0b8	-0.37097716
151	0x3e2de739	0.16982736
152	0x3f69b922	0.91298115
153	0xbe99c94b	-0.30036387
154	0xbe6be096	-0.23034891
155	0xbf6cf39d	-0.92559224
156	0x3ee6eb5e	0.45101446
157	0x3f521d89	0.8207632
158	0xbeb3845a	-0.35061914
159	0x3f57282c	0.8404567
160	0xbf05d42d	-0.5227688
161	0xbe120f69	-0.14263691
162	0xbe5c6600	-0.21523285
163	0x3e9005e9	0.2812951
164	0x3f6f677a	0.9351727
165	0xbee01f5f	-0.43773934
166	0x3f540723	0.8282339
167	0xbeb322e3	-0.34987554
168	0xbf5f7a4f	-0.87296003
169	0xbef82638	-0.4846666
170	0xbd61cf2c	-0.055129215
171	0x3f779a4a	0.967198
172	0x3e0b4f39	0.1360444
173	0xbe5babc1	-0.21452238
174	0x3e2ed0e5	0.17071874
175	0x3e8df0e4	0.27722847
176	0x3f720d4d	0.94551545
177	0x3e409e47	0.18810378
178	0xbf737cd8	-0.9511237
179	0x3e7ac98e	0.2449095
180	0x3f611de4	0.87936234
181	0xbed9b9c3	-0.42524537
182	0x3e5b5b5d	0.21421571
183	0xbe5b9997	-0.21445309
184	0x3d44783e	0.047966234
185	0x3f79be08	0.9755559
186	0xbed9aa14	-0.42512572
187	0xbf675fd8	-0.9038062
188	0xbd48c475	-0.04901548

left_hand_pose f4 [15, 3, 3]
0	0x3f460ddc	0.773649
1	0x3f1ff8ba	0.624889
2	0x3dd69c5a	0.104790404
3	0xbf194f0a	-0.5988623
4	0x3f46714d	0.77516633
5	0xbe4e072d	-0.20119925
6	0xbe53ec96	-0.20695719
7	0x3dbe43b2	0.092902556
8	0x3f79536b	0.9739291
9	0x3eb4aac6	0.3528654
10	0x3f6f2bcc	0.93426204
11	0xbd52794a	-0.0513852
12	0xbf6f790f	-0.93544096
13	0x3eb3b8c8	0.35101914
14	0xbd2aa70a	-0.041663207
15	0xbcab1b8f	-0.020887164
16	0x3d808d34	0.06276932
17	0x3f7f7071	0.99780947
18	0x3f6e9876	0.93201387
19	0x3eaefbc2	0.3417645
20	0xbdf7032e	-0.12061153
21	0xbead860c	-0.33891332
22	0x3f7095ca	0.9397856
23	0x3d347225	0.04405417
24	0x3e037ca3	0.12840514
25	0xb93f17bd	-0.00018224023
26	0x3f7de17a	0.99172175
27	0x3e9ea71b	0.30986866
28	0x3f6ba452	0.9204761
29	0x3e73d7f6	0.23812851
30	0xbf736492	-0.95075333
31	0x3e98a450	0.2981286
32	0x3dada09f	0.08477902
33	0x3be6d260	0.0070441216
34	0xbe815e33	-0.2526718
35	0x3f77afcf	0.9675264
36	0x3ee0b8ec	0.43891084
37	0x3f5770ae	0.8415631
38	0x3ea133aa	0.3148473
39	0xbf65aa50	-0.89713
40	0x3edc2904	0.43000042
41	0x3dcf6b8c	0.10127935
42	0xbd4d6bac	-0.050151512
43	0xbea760f2	-0.3269115
44	0x3f7197db	0.9437234
45	0x3f4e01a4	0.80471253
46	0x3f1464d2	0.5796634
47	0xbe033f79	-0.12817182
48	0xbf1535e9	-0.58285385
49	0x3f4ffc13	0.8124401
50	0x3c746696	0.0149170365
51	0x3de6f88f	0.112778775
52	0x3d8069a6	0.06270151
53	0x3f7ddc1b	0.9916398
54	0x3ee76526	0.45194358
55	0x3f620b34	0.88298345
56	0x3e01e124	0.1268354
57	0xbf128623	-0.57235926
58	0x3e363ec3	0.17797379
59	0x3f4ceab3	0.8004562
60	0x3f2f28cb	0.6842162
61	0xbede63f9	-0.43435648
62	0x3f15f828	0.5858178
63	0x3f4542ff	0.7705535
64	0x3f21fda3	0.63277644
65	0x3d9c8654	0.076428086
66	0xbf2210d6	-0.6330694
67	0x3f3ef40b	0.7459113
68	0x3e53f1c0	0.20697689
69	0x3d977922	0.07396151
70	0xbe54dc27	-0.20787106
71	0x3f79b0ee	0.975356
72	0x3f76a6f3	0.96348494
73	0x3e6e4a48	0.23270524
74	0xbe07a30e	-0.13245794
75	0xbde266c3	-0.110547565
76	0x3f4bd780	0.796257
77	0x3f1842fe	0.5947722
78	0x3e79baf2	0.2438772
79	0xbf0ef408	-0.5584111
80	0x3f4afbee	0.79290664
81	0x3e632252	0.22181061
82	0x3f77888e	0.9669274
83	0xbe00ec8d	-0.12590237
84	0xbf717de0	-0.94332695
85	0x3e7b5e13	0.24547605
86	0x3e64b052	0.22332886
87	0x3e7cc5f0	0.24684882
88	0x3d8dc8a9	0.069230385
89	0x3f7771a6	0.9665779
90	0x3f2a7488	0.6658406
91	0x3f3bc4c0	0.7334709
92	0x3e0bf154	0.13666278
93	0xbf2df281	-0.67948157
94	0x3f053e1d	0.520479
95	0x3f04618f	0.5171136
96	0x3e9dc6d8	0.30815768
97	0xbedfd568	-0.43717504
98	0x3f584dbb	0.8449361
99	0x3f4526c9	0.77012306
100	0x3f2244ef	0.63386434
101	0xbd92a2a2	-0.07159926
102	0xbf17faf0	-0.59367275
103	0x3f40d632	0.75326836
104	0x3e90f10a	0.28308898
105	0x3e6ef977	0.23337351
106	0xbe33b80f	-0.17550682
107	0x3f74d7c4	0.9564173
108	0x3f762ad8	0.96159124
109	0x3dcb74e8	0.099344075
110	0x3e830250	0.25587702
111	0x3e3d3281	0.18476297
112	0x3ee9067c	0.4551276
113	0xbf5efce2	-0.8710462
114	0xbe4fdc9d	-0.20299001
115	0x3f6286a4	0.88486695
116	0x3ed6ad64	0.41929162
117	0x3f7efa26	0.99600446
118	0x3d62f4b8	0.055409163
119	0x3d8f6ef3	0.07003584
120	0xbdb6e232	-0.08929862
121	0x3f20622b	0.6264979
122	0x3f4637eb	0.77429074
123	0xba7f7605	-0.00097450643
124	0xbf470709	-0.7774511
125	0x3f210263	0.62894267
126	0x3f70f3c9	0.94121987
127	0x3eacc6e2	0.33745486
128	0x3c781bd0	0.01514335
129	0xbe50d998	-0.20395505
130	0x3f1a7c46	0.60345876
131	0xbf4557b4	-0.7708695
132	0xbe89de07	-0.26927206
133	0x3f38f3bd	0.72246915
134	0x3f23062d	0.636813

right_hand_pose f4 [15, 3, 3]
0	0x3f41a762	0.7564603
1	0xbf1caef2	-0.61204445
2	0xbe6c1e65	-0.2305847
3	0x3f1e2bcd	0.61785585
4	0x3f48cc28	0.7843652
5	0xbd614b2a	-0.055003323
6	0x3e5bacfd	0.21452709
7	0xbdce8fd5	-0.100860275
8	0x3f78b3fc	0.97149634
9	0x3e03fe4f	0.1288998
10	0xbf77b02b	-0.96753186
11	0x3e5ea0b0	0.21740985
12	0x3f7c0166	0.98439634
13	0x3dc9712f	0.09836041
14	0xbe1568c9	-0.14590754
15	0x3df5522f	0.11978566
16	0x3e6e69a9	0.23282494
17	0x3f7711ad	0.96511346
18	0x3f670a06	0.9024967
19	0xbec196ac	-0.37810266
20	0x3e533270	0.20624709
21	0x3ebea340	0.37233925
22	0x3f6cf60e	0.9256295
23	0x3d8a8091	0.06762803
24	0xbe5dac9a	-0.21647874
25	0x3c811aa7	0.01575978
26	0x3f79e5a0	0.97616005
27	0x3e9d2e05	0.30699173
28	0xbf6b7d24	-0.91987824
29	0xbe79f2e5	-0.24409063
30	0x3f73505c	0.95044494
31	0x3e90f209	0.28309658
32	0x3e0393f7	0.12849413
33	0xbd491aa6	-0.04909768
34	0xbe8afa5b	-0.2714413
35	0x3f761154	0.9612019
36	0x3ee6f088	0.45105386
37	0xbf5d781c	-0.865114
38	0xbe60a59d	-0.21938176
39	0x3f6446fe	0.89170825
40	0x3eda5e15	0.42649904
41	0x3e1b251c	0.15150875
42	0xbd19a01d	-0.03750621
43	0xbe87262e	-0.26396316
44	0x3f76bbd1	0.96380335
45	0x3f462423	0.7739889
46	0xbf20af49	-0.62767464
47	0x3daaedc9	0.08346135
48	0x3f1fef90	0.6247492
49	0x3f474915	0.7784589
50	0x3d78d135	0.06074639
51	0xbdd32633	-0.1031002
52	0x3ba7f2de	0.0051253876
53	0x3f7ea1e4	0.99465775
54	0x3ed83372	0.4222675
55	0xbf66d6fe	-0.901718
56	0x3dbddd80	0.092707634
57	0x3f25d7c3	0.6478235
58	0x3ebe53ef	0.3717341
59	0x3f2a392c	0.6649349
60	0xbf2250dd	-0.6340464
61	0xbe620501	-0.22072221
62	0x3f3dba64	0.74112535
63	0x3f358c4d	0.70917207
64	0xbf33b65a	-0.7020012
65	0xbd85d07d	-0.065339066
66	0x3f16e55a	0.5894371
67	0x3f0a1c6a	0.53949606
68	0x3f19ebdd	0.60125524
69	0xbec60ed0	-0.38683176
70	0xbeee0841	-0.46490672
71	0x3f4bdfa2	0.7963811
72	0x3f721c62	0.9457456
73	0xbea1b1ed	-0.3158106
74	0x3d9c5c11	0.07634748
75	0x3e7df31d	0.24799772
76	0x3f5a7d47	0.8534741
77	0x3eeaac09	0.45834377
78	0xbe56f2c2	-0.20991042
79	0xbed43eee	-0.41454262
80	0x3f62af73	0.88548964
81	0x3e9d75d5	0.3075396
82	0xbf6ff9e5	-0.93740684
83	0x3e2748f2	0.1633642
84	0x3f67e3f7	0.9058222
85	0x3eae9691	0.34099248
86	0x3e80b9a9	0.25141647
87	0xbe95307a	-0.29138547
88	0x3d90b55a	0.0706584
89	0x3f7438dd	0.95399266
90	0x3f19e898	0.60120535
91	0xbf4a1e71	-0.789527
92	0xbdfc7cd7	-0.12328499
93	0x3f32ceff	0.698471
94	0x3ee37633	0.44426116
95	0x3f0fa092	0.56104386
96	0xbec6c0a7	-0.38818857
97	0xbed8c9a9	-0.42341354
98	0x3f518cbf	0.81855386
99	0x3f434e10	0.7629099
100	0xbf257231	-0.6462737
101	0x3c8d9b16	0.017285865
102	0x3f1c7bc9	0.6112638
103	0x3f3ad265	0.72977287
104	0x3e9ccc9e	0.3062486
105	0xbe579688	-0.21053517
106	0xbe646d7a	-0.22307387
107	0x3f73a8d0	0.9517946
108	0x3f779e8f	0.96726316
109	0x3d2a99e3	0.041650664
110	0xbe802bcb	-0.2503341
111	0xbe527edd	-0.20556207
112	0x3f350109	0.70704705
113	0xbf2d37a7	-0.67663044
114	0x3e186332	0.1488159
115	0x3f34b86a	0.70593894
116	0x3f314537	0.6924624
117	0x3f7360f3	0.9506981
118	0xbe8e0409	-0.27737454
119	0xbe0e0650	-0.13869596
120	0x3e9cfb49	0.30660465
121	0x3f4607c6	0.7735561
122	0x3f0dfba7	0.55462116
123	0xbd3ea9ce	-0.046548657
124	0xbf11de8c	-0.56980205
125	0x3f5209d7	0.82046264
126	0x3f7114f3	0.9417259
127	0xbe8dfeb5	-0.2773339
128	0xbe42ee9b	-0.19036333
129	0x3d502f91	0.050826613
130	0x3f2d3e6a	0.6767336
131	0xbf3c0652	-0.73447144
132	0x3eaa3ff1	0.33251908
133	0x3f2e973e	0.6819953
134	0x3f26c1ba	0.65139353

jaw_pose f4 [1, 3, 3]
0	0x3f7ffd45	0.99995834
1	0xbc14ea61	-0.009089083
2	0xba6fecc8	-0.00091524096
3	0x3c12f8dd	0.008970466
4	0x3f7ef590	0.9959345
5	0xbdb79168	-0.08963281
6	0x3ae241a6	0.0017261996
7	0x3db78b23	0.08962085
8	0x3f7ef830	0.99597454

betas f4 [10]
0	0xbdc9c99c	-0.09852907
1	0xbebf032d	-0.3730711
2	0x3ff1d8d6	1.8894298
3	0xbfeef828	-1.8669481
4	0xbf83f252	-1.0308325
5	0xbffe91d1	-1.988825
6	0xbec1a1ff	-0.37818906
7	0xbf069298	-0.52567434
8	0x3f0bc4cd	0.5459717
9	0x3da5ab6a	0.08089335

expression f4 [10]
0	0x400640a0	2.0976944
1	0x3f749848	0.9554486
2	0xbf893515	-1.0719324
3	0xbec59aa8	-0.38594556
4	0xbfa2e521	-1.2726175
5	0xbf40a166	-0.75246274
6	0xbf1b98f4	-0.6078026
7	0x3eb78edf	0.3585119
8	0x3e3a881f	0.18215989
9	0x3e2b2d26	0.16716442

vertices f4 [10475, 3]
0	0x3d536741	0.051612142
1	0xbf6ba985	-0.9205554
2	0x3d0ad362	0.033892997
3	0x3d63b8ff	0.055596348
4	0xbf6b68f8	-0.91957045
5	0x3d0478d6	0.0323418
6	0x3d66e89a	0.05637417
7	0xbf6bbab9	-0.9208179
8	0x3d07397b	0.033013802
9	0x3d5550ba	0.05207894
10	0xbf6bf984	-0.92177606
11	0x3d0b1c36	0.03396245
12	0x3d83ae02	0.06429674
13	0xbf6b2908	-0.91859484
14	0x3d32d840	0.043663263
15	0x3d827f92	0.06371988
16	0xbf6c4568	-0.92293406
17	0x3d251d23	0.04031099
18	0x3d830bfa	0.06398769
19	0xbf6cf91a	-0.925676
20	0x3d282cc5	0.04105832
21	0x3d830588	0.063975394
22	0xbf6cbf1f	-0.9247913
23	0x3d341735	0.043967444
24	0x3c95bdc6	0.018278968
25	0xbf5f91c5	-0.873318
26	0x3dbb3f30	0.091429114
27	0x3b70d390	0.0036747195
28	0xbf5f46fa	-0.87217677
29	0x3dc79c6f	0.09746634
30	0x3b783248	0.0037871767
31	0xbf5ce25e	-0.8628291
32	0x3dc1c8be	0.09462117
33	0x3c9256c0	0.017863631
34	0xbf5cddbc	-0.8627584
35	0x3db31637	0.087444715
36	0x3d11bfce	0.03558331
37	0xbf57c177	-0.8427958
38	0x3d800173	0.062502764
39	0x3cf72b0b	0.030171892
40	0xbf596802	-0.8492433
41	0x3d8cc3f7	0.06873315
42	0x3ceff2da	0.029290605
43	0xbf56ec0e	-0.8395394
44	0x3d93dd58	0.07219952
45	0x3d1fb5ce	0.03899174
46	0xbf55cda5	-0.83516914
47	0x3d738ede	0.05946242
48	0x3cfd5198	0.030922696
49	0xbf7fdb2e	-0.99943817
50	0xbd1c7a7c	-0.038202748
51	0x3d1d7aac	0.038447067
52	0xbf7efad4	-0.99601483
53	0xbd09ba2a	-0.033624806
54	0x3d1549b1	0.03644723
55	0xbf7dc5ea	-0.9913012
56	0xbd1cd8fa	-0.038292862
57	0xbd9378fa	-0.07200809
58	0xbf6da81f	-0.9283466
59	0x3d202e20	0.03910649
60	0xbd9bef95	-0.07614056
61	0xbf6d8daa	-0.9279429
62	0x3d1baa77	0.038004365
63	0xbd9cdf72	-0.07659806
64	0xbf6df374	-0.92949605
65	0x3d1e1409	0.038593326
66	0xbd936d5a	-0.071985915
67	0xbf6e03c7	-0.92974514
68	0x3d20e7f1	0.039283697
69	0xbdaa8841	-0.083267696
70	0xbf6d8adc	-0.9279001
71	0x3d4c5b64	0.049891844
72	0xbda9066e	-0.082531795
73	0xbf6e9f0e	-0.9321145
74	0x3d403116	0.046921812
75	0xbda83633	-0.08213463
76	0xbf6f53e4	-0.9348738
77	0x3d429261	0.04750288
78	0xbda7adf4	-0.08187476
79	0xbf6f13ee	-0.93389785
80	0x3d4d5ad2	0.05013544
81	0x3ceeaf70	0.02913639
82	0xbf7e5d9c	-0.99361587
83	0xbd2b2ef8	-0.04179284
84	0x3db00892	0.08595385
85	0xbf6fbfba	-0.93651927
86	0x3d74c1b2	0.059755035
87	0x3dafcaca	0.08583601
88	0xbf6ef972	-0.93349373
89	0x3d771746	0.06032493
90	0x3dafcacd	0.08583603
91	0xbf6eb2f4	-0.9324181
92	0x3d6dc043	0.058044683
93	0x3dafbfa7	0.08581477
94	0xbf6f5d33	-0.93501586
95	0x3d6c2278	0.05765006
96	0x3da527f6	0.080642626
97	0xbf6b3466	-0.9187683
98	0x3d5d9831	0.05410022
99	0x3da5976e	0.080855235
100	0xbf6cface	-0.925702
101	0x3d6b5d5c	0.05746208
102	0x3da89698	0.082318485
103	0xbf6d9bfc	-0.9281614
104	0x3d707352	0.058703728
105	0x3da8fcf2	0.082513705
106	0xbf6d1540	-0.9261055
107	0x3d6b3292	0.057421274
108	0x3da36241	0.07977725
109	0xbf68c8c5	-0.9093135
110	0x3d457610	0.048208296
111	0x3da1298c	0.078692526
112	0xbf690122	-0.91017354
113	0x3d44aa87	0.04801419
114	0x3da53aa3	0.08067825
115	0xbf6a005b	-0.9140679
116	0x3d5044ff	0.05084705
117	0x3da75c90	0.08171952
118	0xbf69d68f	-0.91343015
119	0x3d5319b2	0.051538177
120	0x3d810e88	0.063016
121	0xbf65a16a	-0.89699423
122	0x3cacc70c	0.021091007
123	0x3d8732d4	0.066014916
124	0xbf660de7	-0.89864963
125	0x3cbe98ac	0.023266159
126	0x3d87a783	0.06623747
127	0xbf6566ae	-0.896098
128	0x3cc53fbc	0.024078242
129	0x3d7b4ea0	0.06135428
130	0xbf6532e4	-0.8953078
131	0x3cb86b48	0.022512093
132	0x3d6f8910	0.058480322
133	0xbf656078	-0.89600325
134	0x3cc0c7d4	0.023532785
135	0x3d814954	0.06312814
136	0xbf6505f2	-0.89462197
137	0x3ce00020	0.02734381
138	0x3d80b035	0.06283609
139	0xbf65b236	-0.89725053
140	0x3cebdfd8	0.02879326
141	0x3d7203df	0.059085723
142	0xbf65d67f	-0.8978042
143	0x3cd21242	0.025643472
144	0x3da5d6d8	0.08097619
145	0xbf73356e	-0.950034
146	0x3d431d2d	0.047635246
147	0x3da64cde	0.0812013
148	0xbf72599a	-0.9466797
149	0x3d3d36e2	0.04619492
150	0x3da26120	0.079286814
151	0xbf72522f	-0.9465665
152	0x3d321c35	0.04348393
153	0x3da1fb06	0.07909207
154	0xbf733388	-0.95000505
155	0x3d36bb59	0.044612262
156	0x3d83eef2	0.064420596
157	0xbf6a4c68	-0.91522837
158	0x3d486210	0.048921645
159	0x3d7f5a5d	0.062342037
160	0xbf68e5e3	-0.9097578
161	0x3d39cb78	0.04536006
162	0x3d8d0e3c	0.068874806
163	0xbf69c3ac	-0.91314197
164	0x3d4b9415	0.04970177
165	0x3d8e5610	0.06950009
166	0xbf6a77ea	-0.91589224
167	0x3d4f99dd	0.050683845
168	0x3d9fbd9a	0.077998355
169	0xbf701fba	-0.9379841
170	0x3d589a56	0.05288156
171	0x3da27685	0.07932762
172	0xbf702bae	-0.9381665
173	0x3d65be64	0.056089774
174	0x3da37926	0.079820916
175	0xbf6f80ea	-0.9355608
176	0x3d68fedf	0.05688369
177	0x3da05011	0.078277715
178	0xbf6f4786	-0.9346851
179	0x3d5d422a	0.054018177
180	0x3da897c0	0.08232069
181	0xbf702fdd	-0.93823034
182	0x3d7b2fc8	0.061324865
183	0x3da8b590	0.08237755
184	0xbf6f5200	-0.934845
185	0x3d7dc170	0.061952055
186	0x3d7c3d11	0.061581675
187	0xbf67e79c	-0.9058778
188	0x3caee462	0.021349136
189	0x3d76a09b	0.06021176
190	0xbf68e16a	-0.90968955
191	0x3caf7c46	0.021421563
192	0x3d789504	0.060688987
193	0xbf69395f	-0.91103166
194	0x3cbd8bd4	0.023137964
195	0x3d7c787a	0.061638333
196	0xbf68e003	-0.90966815
197	0x3cc60f86	0.024177324
198	0x3d809c36	0.06279795
199	0xbf6b581e	-0.9193133
200	0x3d233582	0.03984595
201	0x3d848e44	0.064724475
202	0xbf6c7a4c	-0.9237411
203	0x3d201c21	0.039089326
204	0x3d992a44	0.07478765
205	0xbf6697f5	-0.9007562
206	0x3d25f173	0.040513467
207	0x3d99721a	0.07492466
208	0xbf672b3d	-0.9030035
209	0x3d24033f	0.04004216
210	0x3d9e85ea	0.07740386
211	0xbf67e566	-0.9058441
212	0x3d35e6d7	0.0444096
213	0x3d9e3a5d	0.07725976
214	0xbf677316	-0.9040998
215	0x3d3972a7	0.045275357
216	0x3d938fac	0.072051376
217	0xbf67ec46	-0.905949
218	0x3d20c068	0.039245993
219	0x3d98ad70	0.074549556
220	0xbf684d07	-0.90742534
221	0x3d3172cb	0.043322366
222	0x3d9ae0c0	0.07562399
223	0xbf685376	-0.9075235
224	0x3d391416	0.04518517
225	0x3d988e9a	0.07449074
226	0xbf67f266	-0.90604246
227	0x3d2e8815	0.042610247
228	0x3da787e4	0.08180216
229	0xbf70eb20	-0.9410877
230	0x3d5856a5	0.052817006
231	0x3da37edc	0.07983181
232	0xbf71c85e	-0.9444636
233	0x3d4704ac	0.04858844
234	0x3da5a729	0.08088524
235	0xbf71a45a	-0.94391406
236	0x3d45d7f5	0.048301656
237	0x3da9a17f	0.08282756
238	0xbf70c1b7	-0.94045585
239	0x3d575c0d	0.05257802
240	0x3d93a2c9	0.07208783
241	0xbf6d82a8	-0.9277749
242	0x3d5e948a	0.054340877
243	0x3d91cdb8	0.07119316
244	0xbf6eee50	-0.93332386
245	0x3d5be9cc	0.053689763
246	0x3d9003e0	0.07031989
247	0xbf6ec42c	-0.93268085
248	0x3d59fa34	0.053217128
249	0x3d9206ee	0.07130228
250	0xbf6d89db	-0.92788476
251	0x3d5be45e	0.053684585
252	0x3da7d44c	0.08194789
253	0xbf6faa16	-0.93618906
254	0x3d709640	0.05873704
255	0x3da82d12	0.082117215

joints f4 [144, 3]
0	0xbb10df58	-0.002210578
1	0xbe851d75	-0.25999036
2	0x3cdac07f	0.026703117
3	0x3d587a4c	0.052851006
4	0xbe260ed0	-0.16216588
5	0x3d0fcbce	0.035106473
6	0xbd77d0ba	-0.06050179
7	0xbe195b8f	-0.14976333
8	0x3cf6a84c	0.030109547
9	0xbb973885	-0.004614892
10	0xbebc1a45	-0.36738792
11	0x3d9342b8	0.0719046
12	0x3e2063bc	0.15663046
13	0x3e17d012	0.14825466
14	0xbde9ef11	-0.114225514
15	0xbe0f38c4	-0.13986498
16	0x3e1ec72b	0.15505664
17	0xbdcbb64b	-0.09946879
18	0x3b049744	0.0020231763
19	0xbf055a47	-0.5209088
20	0x3d8515d1	0.06498302
21	0x3e0402f1	0.12891747
22	0x3f055560	0.52083397
23	0xbda1ca92	-0.07899965
24	0xbded2aad	-0.115804054
25	0x3f083cb1	0.5321761
26	0xbd83d951	-0.06437934
27	0xbc33e80e	-0.010980619
28	0xbf139b14	-0.57658505
29	0x3d125746	0.03572776
30	0x3e42e624	0.19033104
31	0x3f13cbba	0.5773274
32	0xbe424be2	-0.1897426
33	0xbe31e444	-0.17372233
34	0x3f1875ac	0.59554553
35	0xbe2f3592	-0.17110279
36	0xbcda02e9	-0.026612716
37	0xbf3f1230	-0.74637127
38	0x3d1e78f6	0.038689576
39	0x3d08edbc	0.033429846
40	0xbf2a0c38	-0.66424894
41	0x3cd26fab	0.025688013
42	0xbd7a17a6	-0.06105771
43	0xbf299f68	-0.6625886
44	0x3d0f9698	0.035055727
45	0x3a9f1470	0.0012136828
46	0xbf6a6c62	-0.9157163
47	0x3ce9d994	0.028546132
48	0x3e29b93f	0.16574572
49	0xbf32139c	-0.6956117
50	0x3c361e9e	0.011115698
51	0xbe35959b	-0.17732851
52	0xbf2fe74b	-0.687123
53	0x3cbda045	0.023147712
54	0x3e5c6ad0	0.2152512
55	0xbee55deb	-0.44798216
56	0xbc65057a	-0.0139783565
57	0xbe70937e	-0.23493764
58	0xbee29ee0	-0.44261837
59	0xbd456430	-0.04819125
60	0x3e514c3d	0.20439239
61	0xbf1b4e98	-0.606668
62	0xbe49ac50	-0.19694638
63	0xbe549c8e	-0.20762846
64	0xbf123e0e	-0.5712594
65	0xbe7df62a	-0.24800935
66	0xbc82e23e	-0.015977021
67	0xbf6a3921	-0.9149342
68	0x3d0dec2d	0.034649063
69	0x3cba182b	0.022716602
70	0xbf78b23d	-0.9714697
71	0xbce6ad60	-0.028158844
72	0xbd2857b2	-0.041099258
73	0xbf79c67d	-0.97568494
74	0xbcd3cfe4	-0.025855966
75	0x3e5191af	0.2046573
76	0xbf328d0e	-0.6974648
77	0xbe75efb1	-0.24017216
78	0x3e3f8bb5	0.18705638
79	0xbf392b56	-0.7233175
80	0xbe7dc84e	-0.24783441
81	0x3e2e3c18	0.17015111
82	0xbf38a1fb	-0.7212216
83	0xbe6e6c87	-0.23283587
84	0x3e426048	0.18982041
85	0xbf30d626	-0.69076765
86	0xbe84da14	-0.2594763
87	0x3e28efeb	0.16497771
88	0xbf34f2f4	-0.7068322
89	0xbe80483f	-0.2505512
90	0x3e20f67a	0.15719023
91	0xbf327d4b	-0.6972243
92	0xbe6baf03	-0.2301598
93	0x3e21e3e8	0.15809596
94	0xbf273c26	-0.65326154
95	0xbe8694f1	-0.26285508
96	0x3e1603c2	0.14649871
97	0xbf2a73a5	-0.6658271
98	0xbe812ff6	-0.25231904
99	0x3e0fc6a5	0.1404062
100	0xbf2b10c8	-0.6682248
101	0xbe6f8ee0	-0.23394346
102	0x3e30a0db	0.17248861
103	0xbf2b9da9	-0.67037445
104	0xbe875704	-0.26433575
105	0x3e1c7e47	0.15282546
106	0xbf301a81	-0.6879044
107	0xbe815ece	-0.25267643
108	0x3e136dd2	0.14397362
109	0xbf2eb925	-0.6825126
110	0xbe6c85e7	-0.23097955
111	0x3e52ec98	0.20598066
112	0xbf280be5	-0.6564315
113	0xbe470d52	-0.19438675
114	0x3e48cba5	0.19608934
115	0xbf2f81ae	-0.6855725
116	0xbe452ce5	-0.19255407
117	0x3e488716	0.19582781
118	0xbf35f040	-0.7106972
119	0xbe4cec2f	-0.20011972
120	0xbe53a55f	-0.20668553
121	0xbf2ae37e	-0.66753376
122	0xbe8b1fb9	-0.2717264
123	0xbe43868b	-0.19094293
124	0xbf320d45	-0.695515
125	0xbe89dc2f	-0.269258
126	0xbe3c346f	-0.18379377
127	0xbf302890	-0.68811893
128	0xbe7f00c2	-0.24902633
129	0xbe3e2944	-0.18570429
130	0xbf2a79d6	-0.66592157
131	0xbe9245b1	-0.28568795
132	0xbe2cb694	-0.16866523
133	0xbf2ebf90	-0.6826105
134	0xbe883667	-0.26604006
135	0xbe2c7967	-0.16843186
136	0xbf2be733	-0.67149657
137	0xbe7ad1b2	-0.24494055
138	0xbe18f506	-0.14937219
139	0xbf21fc09	-0.632752
140	0xbe913914	-0.2836386
141	0xbe10396d	-0.14084406
142	0xbf252521	-0.6450978
143	0xbe8a633d	-0.27028838
144	0xbe12bf04	-0.14330679
145	0xbf244bad	-0.6417797
146	0xbe80a074	-0.25122416
147	0xbe28e0a4	-0.16491944
148	0xbf260123	-0.64845484
149	0xbe9320cb	-0.28735957
150	0xbe1db5ff	-0.15401457
151	0xbf2ae9a5	-0.66762763
152	0xbe89a419	-0.2688301
153	0xbe1d3dcb	-0.15355603
154	0xbf28f0cb	-0.6599242
155	0xbe7bf661	-0.24605705
156	0xbe5d80b2	-0.21631125
157	0xbf1e674f	-0.61876386
158	0xbe712c80	-0.23552132
159	0xbe62ac88	-0.22136128
160	0xbf25f364	-0.6482451
161	0xbe698870	-0.22805953
162	0xbe6211fc	-0.22077173
163	0xbf2caa89	-0.67447716
164	0xbe69d54a	-0.2283527
165	0xbc48aa76	-0.012247672
166	0xbf73add1	-0.951871
167	0xbdaf2e8f	-0.08553802
168	0xbd2bf1ea	-0.041978754
169	0xbf7ada5c	-0.9798944
170	0xbd1dae64	-0.03849639
171	0x3cd325ba	0.025774825
172	0xbf79baba	-0.9755055
173	0xbd258796	-0.040412508
174	0xbda786f7	-0.081800394
175	0xbf6dad94	-0.92842984
176	0x3d3de32f	0.046359237
177	0x3d830bfa	0.06398769
178	0xbf6cf91a	-0.925676
179	0x3d282cc5	0.04105832
180	0x3e347ae4	0.17625004
181	0x3f11ca0e	0.56948936
182	0xbe8ae265	-0.2712585
183	0x3e6e7044	0.23285013
184	0x3f13e7b5	0.5777543
185	0xbe552803	-0.20816045
186	0x3e124692	0.14284733
187	0x3f0f7a51	0.56046015
188	0xbc4b0370	-0.012390956
189	0xbe158323	-0.14600806
190	0x3f16b82e	0.58874786
191	0xbe7f133e	-0.24909684
192	0xbe541e72	-0.20714739
193	0x3f1971d1	0.59939295
194	0xbe38c024	-0.18042046
195	0xbdd56e78	-0.10421461
196	0x3f1511d3	0.5823032
197	0x3c00b064	0.007854555
198	0x3e36c310	0.17847848
199	0xbf3c1466	-0.73468626
200	0xbe53646a	-0.20643774
201	0x3e205150	0.15656018
202	0xbf374cf8	-0.7160182
203	0xbe58b7e0	-0.21163893
204	0x3e2314a0	0.15925837
205	0xbf2eff02	-0.6835786
206	0xbe543550	-0.20723462
207	0x3e17e467	0.14833222
208	0xbf2c3101	-0.67262274
209	0xbe55dc90	-0.20884919
210	0x3e13ec26	0.14445552
211	0xbf2ba571	-0.6704932
212	0xbe5993b0	-0.21247745
213	0xbe54e220	-0.20789385
214	0xbf3404bf	-0.7031974
215	0xbe63caa2	-0.22245267
216	0xbe3afd86	-0.18260774
217	0xbf2d72ec	-0.6775348
218	0xbe698c50	-0.22807431
219	0xbe346328	-0.1761595
220	0xbf276a5d	-0.6539667
221	0xbe68e0a4	-0.22741944
222	0xbe27227a	-0.16321746
223	0xbf259af8	-0.6468959
224	0xbe6b5534	-0.22981721
225	0xbe1d908e	-0.15387174
226	0xbf22d518	-0.63606405
227	0xbe715a88	-0.23569691
228	0xbd90685b	-0.07051154
229	0xbf7a53ee	-0.97784317
230	0xbc45b483	-0.012066963
231	0xbd79b9e4	-0.060968295
232	0xbf7ef4a4	-0.9959204
233	0xbcbc52df	-0.022988735
234	0xbd3c73de	-0.046008937
235	0xbf804af2	-1.0022871
236	0xbd147894	-0.036247805
237	0xbcf932ea	-0.030419786
238	0xbf803330	-1.0015621
239	0xbd35ea10	-0.044412673
240	0xbc8fad78	-0.017538771
241	0xbf7f4dde	-0.9972819
242	0xbd44ad71	-0.04801697
243	0x3a2f81be	0.00066950533
244	0xbf7f0932	-0.99623406
245	0xbd4518a6	-0.04811921
246	0x3c668060	0.014068693
247	0xbf7fc1c0	-0.99905014
248	0xbd3a1b18	-0.045435995
249	0x3cf7729b	0.030206015
250	0xbf7f8af1	-0.9982138
251	0xbd205fea	-0.03915397
252	0x3d394777	0.04523417
253	0xbf7d6d9e	-0.9899539
254	0xbce28d49	-0.02765526
255	0x3d5a14f6	0.053242646

transl f8 [3]
0	0xbf41ba0c00000000	-0.000540977343916893
1	0x3fe3d0aec0000000	0.619223952293396
2	0x40121d5d00000000	4.528675079345703

proj_joints f4 [144, 2]
0	0xbba33dde	-0.0049817404
1	0x3f26808b	0.6503989
2	0x3dc1f666	0.09470825
3	0x3f53d7d2	0.8275119
4	0xbde257ce	-0.11051904
5	0x3f59976e	0.8499669
6	0xbc18f0f7	-0.009334794
7	0x3ee972c3	0.4559537
8	0x3e90b151	0.28260282
9	0x3fb1dc3e	1.3895338
10	0xbe82277d	-0.25420752
11	0x3fb36fca	1.401849
12	0x3b2fde77	0.002683548
13	0x3e364600	0.1780014
14	0x3e6e0199	0.23242797
15	0x40041a24	2.0640955
16	0xbe57b344	-0.21064478
17	0x40056a97	2.0846307
18	0xbcaae2b6	-0.020860057
19	0x3d9e1a3e	0.07719849
20	0x3eafeebe	0.34361833
21	0x400aa5ef	2.1663778
22	0xbea18a1d	-0.31550685
23	0x400cc259	2.199362
24	0xbd495e5b	-0.04916225
25	0xbe6bba35	-0.23020251
26	0x3d73e663	0.059545886
27	0xbda6f334	-0.08151856
28	0xbde46780	-0.111525536
29	0xbda0cb25	-0.07851247
30	0x3a9fa377	0.0012179454
31	0xbf096c09	-0.53680474
32	0x3e992472	0.29910618
33	0xbe0d9ee3	-0.13830142
34	0xbea4e1e4	-0.3220359
35	0xbdfbc402	-0.12293245
36	0x3ec70881	0.38873675
37	0x3e9ebd16	0.31003636
38	0xbeda4902	-0.42633826
39	0x3ea3b5f5	0.3197476
40	0x3ebcf79e	0.36907667
41	0x3cba3a1c	0.022732787
42	0xbec0f851	-0.3768945
43	0x3db1d98d	0.08684073
44	0xbcf4fdb6	-0.029906135
45	0xbf090f3d	-0.53538877
46	0x3d2473aa	0.04014937
47	0xbf234368	-0.6377473
48	0xbd9a6648	-0.0753904
49	0xbf253790	-0.64537907
50	0x3ebd367c	0.3695563
51	0xbe110e67	-0.1416565
52	0x3eace5a4	0.33768952
53	0xbe40fc83	-0.18846326
54	0x3e9d39e1	0.3070822
55	0xbe3d19c6	-0.18466863
56	0x3eaf7591	0.34269384
57	0xbe04a3d0	-0.12953115
58	0x3e986e31	0.2977157
59	0xbe226c4d	-0.15861626
60	0x3e913628	0.2836163
61	0xbe109c42	-0.14122108
62	0x3e920d18	0.28525615
63	0xbd7c6b33	-0.06162567
64	0x3e874cf9	0.26425913
65	0xbdaccd3c	-0.08437583
66	0x3e81a72b	0.25322852
67	0xbdb5b13a	-0.08871694
68	0x3e9f6497	0.3113143
69	0xbdbda9bd	-0.09260891
70	0x3e8d2a5c	0.2757138
71	0xbdfea9c1	-0.12434722
72	0x3e84f5bf	0.2596874
73	0xbdeaaba6	-0.114585206
74	0x3ebe7087	0.37195227
75	0xbd89f6a0	-0.06736493
76	0x3eb5453c	0.35404384
77	0xbdf6043a	-0.12012525
78	0x3eb5072c	0.35357034
79	0xbe2996b2	-0.16561392
80	0xbec0188d	-0.3751873
81	0xbdb32141	-0.08746577
82	0xbeb180b4	-0.34668505
83	0xbe0d70f9	-0.13812627
84	0xbeaae026	-0.33374137
85	0xbdff7562	-0.12473561
86	0xbeaca588	-0.3372004
87	0xbdad26ea	-0.08454688
88	0xbe9cda06	-0.3063509
89	0xbdeb089b	-0.11476251
90	0xbe9ca2a4	-0.30592835
91	0xbdc1d2e3	-0.094640516
92	0xbe8af7a0	-0.27142048
93	0xbcc8a513	-0.024492776
94	0xbe830fd5	-0.25598016
95	0xbd3fe099	-0.046845052
96	0xbe855842	-0.26043898
97	0xbd27455b	-0.040837627
98	0xbe99611d	-0.29956904
99	0xbd58c5d9	-0.052923057
100	0xbe8f454d	-0.2798256
101	0xbdb37a5d	-0.08763573
102	0xbe8ed87c	-0.2789954
103	0xbd96ea06	-0.07368855
104	0xbec904d0	-0.39261484
105	0x3a5a5d8e	0.0008329981
106	0xbecdb33a	-0.40175802
107	0xbd5737a6	-0.052543305
108	0xbecd2753	-0.40069064
109	0xbdcce029	-0.10003693
110	0xbcbdada0	-0.02315408
111	0xbf1a2df0	-0.60226345
112	0xbd9da921	-0.076982744
113	0xbf272b08	-0.65300035
114	0x3d3b2199	0.045686338
115	0xbf252244	-0.6450541
116	0xbe18a892	-0.14908054
117	0xbf0f508d	-0.55982286
118	0x3deb41b3	0.114871405
119	0xbf0e09cb	-0.5548369
120	0x3ea2e135	0.31812444
121	0x4009bd6e	2.1521869
122	0x3ed758e0	0.42059994
123	0x400ab299	2.1671507
124	0x3e83ea78	0.25764823
125	0x4008b198	2.1358395
126	0xbe87d94a	-0.26532966
127	0x400bf8b4	2.1870546
128	0xbec08628	-0.37602353
129	0x400d347a	2.206328
130	0xbe4236b9	-0.18966188
131	0x400b3988	2.1753864
132	0x3ea4f208	0.32215905
133	0xbe56104f	-0.20904659
134	0x3e90a0a4	0.2824756
135	0xbe337424	-0.17524773
136	0x3e9320f1	0.2873607
137	0xbdee9f8f	-0.11651527
138	0x3e890014	0.26757872
139	0xbdc5ffe3	-0.09667947
140	0x3e85681b	0.2605599
141	0xbdbe1a71	-0.09282387
142	0xbec1374c	-0.377375
143	0xbe1baf30	-0.15203547
144	0xbea9c6b2	-0.33159405
145	0xbdd83697	-0.10557287
146	0xbea3cc79	-0.31991938
147	0xbd80d2fb	-0.06290241
148	0xbe97cd38	-0.29648757
149	0xbd4d3638	-0.050100535
150	0xbe8f2368	-0.279567
151	0xbcf9c4b5	-0.030489305
152	0xbe03bab2	-0.12864187
153	0xbf2637a5	-0.64928657
154	0xbde412a0	-0.11136365
155	0xbf2e9895	-0.6820157
156	0xbdac9ab6	-0.08427946
157	0xbf318c06	-0.69354284
158	0xbd6599f3	-0.05605502
159	0xbf3135ff	-0.69223017
160	0xbd0613c8	-0.03273371
161	0xbf2f3a21	-0.6844807
162	0x39740188	0.00023270224
163	0xbf2ebdcc	-0.6825836
164	0x3cc8a3cf	0.024492173
165	0xbf300bf0	-0.68768215
166	0x3d5bfe0f	0.053709086
167	0xbf2fa8b5	-0.686168
168	0x3da5b840	0.080917835
169	0xbf2bd4a1	-0.6712132
170	0x3dc36a28	0.09541732
171	0xbf22e3b2	-0.63628685
172	0xbc9283ba	-0.017885078
173	0xbf2950ae	-0.6613873
174	0xbc9fec6f	-0.01952192
175	0xbf25adf2	-0.64718544
176	0xbcae6a94	-0.021291055
177	0xbf224a41	-0.6339455
178	0xbcb78909	-0.02240421
179	0xbf1e6a73	-0.6188118
180	0xbd4561a9	-0.04818884
181	0xbf1811f5	-0.594024
182	0xbd177ee4	-0.036986247
183	0xbf16c00c	-0.5888679
184	0xbcc0dbe3	-0.02354235
185	0xbf15778b	-0.58385533
186	0xbc15b4fa	-0.009137386
187	0xbf16480b	-0.5870368
188	0x3b587881	0.003303081
189	0xbf174f2c	-0.5910518
190	0xbdccbc8d	-0.09996901
191	0xbf254879	-0.6456371
192	0xbdaa95c2	-0.08329345
193	0xbf281686	-0.6565937
194	0xbd8627e5	-0.06550578
195	0xbf27d522	-0.6555959
196	0xbd525005	-0.051345844
197	0xbf254d25	-0.6457084
198	0xbd87c11d	-0.0662863
199	0xbf24b082	-0.6433183
200	0xbda9c4ea	-0.082895115
201	0xbf24ab17	-0.6432356
202	0x3c7f0294	0.0155645795
203	0xbf2458ee	-0.64198196
204	0x3cffd59a	0.031229783
205	0xbf268940	-0.65053177
206	0x3d4962ad	0.04916637
207	0xbf265e5a	-0.6498772
208	0x3d85569f	0.06510662
209	0xbf2333af	-0.6375074
210	0x3d3db860	0.04631841
211	0xbf22ee1d	-0.6364458
212	0x3cf25e5b	0.029586008
213	0xbf237965	-0.6385711
214	0xbd9c47a7	-0.07630854
215	0xbf08ba5f	-0.5340938
216	0xbd7549c6	-0.05988481
217	0xbf0ecd15	-0.5578168
218	0xbd1b94e0	-0.037983775
219	0xbf107887	-0.5643391
220	0xbcca90a8	-0.02472718
221	0xbf101e4c	-0.5629623
222	0xbc367f5a	-0.011138761
223	0xbf100ba4	-0.5626776
224	0x3c2ab27b	0.01041853
225	0xbf0ded39	-0.554401
226	0x3cd0bd91	0.025481017
227	0xbf072cc5	-0.5280269
228	0x3c1e6aff	0.009669065
229	0xbf03260c	-0.5122993
230	0xbc43b338	-0.011944585
231	0xbf02b172	-0.5105201
232	0xbcdf48f9	-0.027256476
233	0xbf02a999	-0.51040035
234	0xbd2dfa53	-0.042475056
235	0xbf0302cb	-0.51176137
236	0xbd81b9b8	-0.06334251
237	0xbf0410ac	-0.5158794
238	0xbd98d71d	-0.074629046
239	0xbf085d37	-0.53267235
240	0xbd1a0e8a	-0.03761152
241	0xbf0d4a15	-0.55191165
242	0xbccbe06e	-0.02488729
243	0xbf0d37ca	-0.5516325
244	0xbc45f981	-0.012083412
245	0xbf0d03a6	-0.5508369
246	0x3ccc11b0	0.024910778
247	0xbf073cd9	-0.5282722
248	0xbc3e769e	-0.01162496
249	0xbf04fd61	-0.51949126
250	0xbcd57baf	-0.026059953
251	0xbf054f26	-0.52073896
252	0xbd269006	-0.040664695
253	0xbf057a75	-0.5213998
254	0xbe18a46b	-0.1490647
255	0xbf1dc7e1	-0.61633116

shift_x f8 []
0	0xbf7dce7663f0a000	-0.007276976072752461

shift_y f8 []
0	0x3fa5ef2a4843a6d3	0.04284031040317662

focal_length_in_mm f8 []
0	0x4060e45306eb3e45	135.13513513513513

center f4 [2]
0	0x4428ec59	675.69293
1	0x441e440d	633.0633
