expose/demo_output/man-in-red-crew-neck-sweatshirt-photography-941693.png_000/man-in-red-crew-neck-sweatshirt-photography-941693.png_000_params.npz (npz, 123883 bytes, 15 tensors)

global_orient f4 [1, 3, 3]
0.99960744 -0.001276534 -0.0279887 -0.0056573716 -0.987581 -0.15700871 -0.027440682 0.15710542
-0.98720056
00000000: 46e6 7f3f 6051 a7ba 8f48 e5bc 7961 b9bb
00000010: 1cd2 7cbf e4c6 20be 48cb e0bc 3ee0 203e
00000020: 2db9 7cbf

body_pose f4 [21, 3, 3]
0.98889166 -0.140031 0.049845338 0.119084984 0.94708014 0.2980905 -0.08894944 -0.2888434
0.9532352 0.9928829 0.09575668 -0.070810966 -0.07103832 0.95340616 0.29320696 0.095588125
-0.2860899 0.9534231 0.9998232 -0.0147485845 -0.011663238 0.011446963 0.96952665 -0.24471822
0.014917067 0.24454145 0.9695241 0.9976617 0.06094406 -0.03093507 -0.0683394 0.8833036
-0.46379358 -0.0009404077 0.46482316 0.88540304 0.9973711 -0.061488662 0.03834144 0.07237406
0.8715206 -0.4849886 -0.0035940534 0.48648852 0.8736796 0.9999747 -0.0028427478 0.0065174145
0.0030540673 0.9994623 -0.03264671 -0.006421103 0.03266579 0.99944574 0.99472135 0.06768741
0.07712288 -0.06840223 0.99763566 0.0066620656 -0.07648959 -0.0119022755 0.99699944 0.9901224
-0.07933922 -0.115597844 0.081129305 0.99664444 0.010856144 0.114348635 -0.020127285 0.9932367
0.9999871 0.0040522506 -0.0030500279 -0.0040560374 0.99999094 -0.0012364443 0.0030449901 0.0012487995
0.9999945 0.98299146 -0.15474774 0.098898716 0.13141611 0.9688709 0.2098071 -0.12828726
-0.1932417 0.97272813 0.98433316 0.15308493 -0.087482505 -0.13250488 0.96958965 0.20576257
0.116321295 -0.19094707 0.97468376 0.999265 0.029678738 0.024263196 -0.033540122 0.9833741
0.17846675 -0.018563135 -0.17914934 0.9836468 0.9619919 0.2114427 -0.17281103 -0.20570435
0.9773013 0.050675586 0.17960341 -0.013201521 0.9836506 0.94723284 -0.21967676 0.23343521
0.20509352 0.97501636 0.08532174 -0.24634634 -0.03294351 0.9686218 0.99834394 0.056700934
-0.0097112255 -0.05410943 0.98287976 0.17612348 0.019531336 -0.17530636 0.9843201 0.5903199
0.7491999 -0.3003696 -0.7370636 0.6520259 0.1777625 0.3290284 0.116454765 0.93711185
0.55653024 -0.74638134 0.36495048 0.74340737 0.64349145 0.18238457 -0.370971 0.16980435
0.9129878 -0.3003712 -0.23036474 -0.9255858 0.4510317 0.8207447 -0.35064015 0.8404448
-0.5227908 -0.14262627 -0.21522585 0.28132516 0.93516517 -0.4377201 0.8282348 -0.34989747
-0.8729713 -0.4846476 -0.055115856 0.9671271 0.13599427 -0.21487395 0.17099456 0.27763528
0.94534636 0.18821825 -0.95101225 0.24525431 0.88299775 -0.41952917 0.21049999 -0.21006249
0.04784415 0.97651666 -0.4197484 -0.9064802 -0.04588107
00000000: 0128 7d3f 4964 0fbe a02a 4c3d d4e2 f33d
00000010: d873 723f 519f 983e 202b b6bd 48e3 93be
00000020: 3907 743f 932d 7e3f 141c c43d 5705 91bd
00000030: 8a7c 91bd 6d12 743f 391f 963e b5c3 c33d
00000040: 607a 92be 8913 743f 6af4 7f3f 0ca4 71bc
00000050: 2a17 3fbc 0b8c 3b3c e632 783f 6a97 7abe
00000060: b766 743c 1369 7a3e bb32 783f c266 7f3f
00000070: 7ba0 793d 8b6b fdbc 87f5 8bbd 2f20 623f
00000080: 5a76 edbe b185 76ba 4dfd ed3e c6a9 623f
00000090: b653 7f3f 89db 7bbd ea0b 1d3d da38 943d
000000a0: f91b 5f3f 6d50 f8be 368a 6bbb 0615 f93e
000000b0: 77a9 5f3f 58fe 7f3f 654d 3abb 0990 d53b
000000c0: bf26 483b c3dc 7f3f 8eb8 05bd 1e68 d2bb
000000d0: 90cc 053d addb 7f3f 0fa6 7e3f b29f 8a3d
000000e0: 9af2 9d3d 7816 8cbd 0d65 7f3f 754d da3b
000000f0: 93a6 9cbd c301 43bc 5b3b 7f3f a978 7d3f
00000100: 9a7c a2bd 90be ecbd 1f27 a63d 1724 7f3f
00000110: f8dd 313c 9e2f ea3d fae1 a4bc c344 7e3f
00000120: 28ff 7f3f bec8 843b fae2 47bb 82e8 84bb
00000130: 68ff 7f3f 3010 a2ba 758e 473b c2ae a33a
00000140: a4ff 7f3f 54a5 7b3f 3176 1ebe 698b ca3d
00000150: f291 063e ec07 783f acd7 563e bc5d 03be
00000160: 27e1 45be b604 793f 42fd 7b3f 4cc2 1c3e
00000170: 072a b3bd 5caf 07be 0737 783f 6cb3 523e
00000180: dc39 ee3d a187 43be e084 793f d5cf 7f3f
00000190: d320 f33c 9cc3 c63c 5e61 09bd 68be 7b3f
000001a0: fdbf 363e b711 98bc ed72 37be 47d0 7b3f
000001b0: 1a45 763f 6f84 583e 60f5 30be 29a4 52be
000001c0: 6b30 7a3f 3491 4f3d f5e9 373e 314b 58bc
000001d0: 87d0 7b3f da7d 723f f2f2 60be a409 6f3e
000001e0: 0904 523e ac9a 793f 2abd ae3d 3742 7cbe
000001f0: c6ef 06bd 99f7 773f 7893 7f3f 3d3f 683d
00000200: d51b 1fbc daa1 5dbd 029e 7b3f b759 343e
00000210: 2e00 a03c 8383 33be 67fc 7b3f 341f 173f
00000220: 91cb 3f3f 0bca 99be 33b0 3cbf 2beb 263f
00000230: 5f07 363e 6976 a83e d67f ee3d 90e6 6f3f
00000240: c478 0e3f d912 3fbf cada ba3e f24f 3e3f
00000250: dbbb 243f 05c3 3a3e e9ef bdbe 31e1 2d3e
00000260: 92b9 693f 41ca 99be bce4 6bbe 31f3 6cbf
00000270: a1ed e63e 531c 523f 1b87 b3be 6427 573f
00000280: 9ed5 05bf 9f0c 12be 2a64 5cbe da09 903e
00000290: fc66 6f3f d91c e0be 3207 543f c325 b3be
000002a0: 0c7b 5fbf bb23 f8be 2ac1 61bd a495 773f
000002b0: 1542 0b3e eb07 5cbe 3319 2f3e 3626 8e3e
000002c0: 3802 723f 49bc 403e 8a75 73bf f223 7b3e
000002d0: 240c 623f 87cc d6be 4f8d 573e 9f1a 57be
000002e0: 3af8 433d fffc 793f 43e9 d6be 160f 68bf
000002f0: caed 3bbd

left_hand_pose f4 [15, 3, 3]
0.77263045 0.6260209 0.10554593 -0.59982497 0.7743002 -0.20166607 -0.20797141 0.09250427
0.9737509 0.35261038 0.93433887 -0.051737998 -0.93552864 0.35072398 -0.042175602 -0.021260547
0.06327394 0.99776965 0.93251693 0.34049553 -0.12031213 -0.33763605 0.94024605 0.04403755
0.12811759 -0.00044405094 0.99175894 0.30706328 0.92118907 0.23900384 -0.9516603 0.29525936
0.08464403 0.007405037 -0.25344154 0.96732235 0.43905577 0.8413178 0.3153004 -0.8970116
0.4303865 0.10068603 -0.050992083 -0.32703492 0.9436355 0.8052674 0.57899344 -0.12771471
-0.58216316 0.81293756 0.014786322 0.11238526 0.06244386 0.99170077 0.45252445 0.88276273
0.12629938 -0.57184535 0.17858441 0.8006876 0.6842621 -0.43455443 0.5856176 0.7704195
0.6328868 0.07686442 -0.6333219 0.74590105 0.20624025 0.07319349 -0.20757142 0.9754778
0.96364427 0.23233071 -0.13195486 -0.11059918 0.7964164 0.5945492 0.24322301 -0.55833983
0.7931577 0.22089595 0.9671156 -0.12606525 -0.94356525 0.24461947 0.22326206 0.24675824
0.06963312 0.9665721 0.6667597 0.73260707 0.13681506 -0.67878693 0.5211641 0.5173357
0.3077007 -0.4378069 0.8447754 0.7702107 0.6337855 -0.07135453 -0.5937506 0.7533783
0.28263298 0.23288563 -0.17532013 0.9565705 0.9615239 0.099835955 0.25593853 0.18458988
0.45520452 -0.87104267 -0.20346582 0.88477206 0.4192613 0.99613595 0.055202838 0.06830667
-0.087824546 0.6265581 0.77441067 -4.8436683e-05 -0.7774173 0.6289852 0.94151217 0.3366643
0.014560999 -0.20419112 0.6043468 -0.7701109 -0.26806876 0.72209555 0.6377437
00000000: 1ccb 453f e842 203f 7728 d83d 218e 19bf
00000010: 8a38 463f 8d81 4ebe 75f6 54be e172 bd3d
00000020: bd47 793f 5989 b43e d530 6f3f 39eb 53bd
00000030: ce7e 6fbf 1892 b33e 53c0 2cbd 992a aebc
00000040: c495 813d d56d 7f3f 6eb9 6e3f 6e55 ae3e
00000050: 3566 f6bd a2de acbe f7b3 703f b860 343d
00000060: 4231 033e 82cf e8b9 eae3 7d3f 6637 9d3e
00000070: 0cd3 6b3f 6cbd 743e 02a0 73bf 3c2c 973e
00000080: d959 ad3d f4a5 f23b 17c3 81be 70a2 773f
00000090: ebcb e03e 9a60 573f 0e6f a13e 8da2 65bf
000000a0: 9f5b dc3e 7a34 ce3d 13dd 50bd 1f71 a7be
000000b0: 1992 713f 0126 4e3f ea38 143f a5c7 02be
000000c0: a508 15bf ad1c 503f 5442 723c 3e2a e63d
000000d0: 22c5 7f3d 1ae0 7d3f 49b1 e73e bdfc 613f
000000e0: a054 013e 7564 12bf d5de 363e ddf9 4c3f
000000f0: cd2b 2f3f eb7d debe 09eb 153f 363a 453f
00000100: df04 223f 186b 9d3d 6221 22bf 5ff3 3e3f
00000110: a530 533e 78e6 953d 9a8d 54be eab8 793f
00000120: 64b1 763f 1ae8 6d3e 2d1f 07be d381 e2bd
00000130: f2e1 4b3f 6034 183f 740f 793e 5cef 0ebf
00000140: 620c 4b3f 8c32 623e e394 773f 4017 01be
00000150: 7e8d 71bf 877d 7a3e cf9e 643e 31ae 7c3e
00000160: cf9b 8e3d 4571 773f c4b0 2a3f 238c 3b3f
00000170: 3f19 0c3e fbc4 2dbf 036b 053f 1d70 043f
00000180: f28a 9d3e 3a28 e0be 3343 583f 872c 453f
00000190: c43f 223f 5322 92bd 0a00 18bf 66dd 403f
000001a0: 45b5 903e 9279 6e3e 1f87 33be cee1 743f
000001b0: 6e26 763f cb76 cc3d 600a 833e 2105 3d3e
000001c0: 9110 e93e a7fc 5ebf 5859 50be 6c80 623f
000001d0: 6ba9 d63e c402 7f3f 5f1c 623d 5ee4 8b3d
000001e0: 5bdd b3bd 1d66 203f c73f 463f 7e28 4bb8
000001f0: d204 47bf 2d05 213f f106 713f 435f ac3e
00000200: 4291 6e3c 7a17 51be 79b6 1a3f fd25 45bf
00000210: 4f40 89be 41db 383f 2c43 233f

right_hand_pose f4 [15, 3, 3]
0.75568885 -0.6133256 -0.22970872 0.61926055 0.78331083 -0.05422665 0.21319191 -0.101271056
0.9717476 0.13358639 -0.9676865 0.21386379 0.98362136 0.1031127 -0.1478403 0.121010974
0.23011045 0.9656115 0.9035902 -0.37651846 0.20434864 0.37084866 0.9262819 0.06688104
-0.2144664 0.015349346 0.97661066 0.30514297 -0.9207223 -0.24322449 0.95102 0.2813523
0.12806973 -0.049484886 -0.27039093 0.961478 0.453068 -0.8641317 -0.21910247 0.89069176
0.42847842 0.15190247 -0.037383057 -0.26397493 0.96380484 0.77505654 -0.6263842 0.083247714
0.62343466 0.77950037 0.060896844 -0.10303643 0.0047010137 0.9946665 0.4222454 -0.9014678
0.09520817 0.64785266 0.37356788 0.6638779 -0.6340313 -0.21863855 0.7417556 0.7093263
-0.7019145 -0.06459224 0.5889642 0.53983974 0.6014101 -0.38726905 -0.46463853 0.7963251
0.94592166 -0.3151941 0.07671329 0.24695049 0.8530158 0.4597604 -0.21035141 -0.41595292
0.8847234 0.30591226 -0.9381223 0.16230935 0.90675724 0.3390537 0.25066683 -0.2901877
0.07049312 0.95436984 0.6022874 -0.7886686 -0.12349829 0.6977225 0.44491494 0.56145704
-0.3878573 -0.424326 0.8182385 0.76335573 -0.64576113 0.016750654 0.611184 0.7303917
0.3049296 -0.20914623 -0.22253203 0.95222753 0.9677103 0.045065433 -0.24800381 -0.20574869
0.7096092 -0.67388594 0.14561681 0.70315284 0.69596833 0.9495452 -0.27948835 -0.14230303
0.310391 0.7723957 0.55413204 -0.044959214 -0.570343 0.8201753 0.9413363 -0.27806604
-0.19122069 0.05058022 0.676482 -0.7347202 0.3336581 0.68194675 0.6508617
00000000: d374 413f e802 1dbf c338 6bbe dc87 1e3f
00000010: 0f87 483f c41c 5ebd fb4e 5a3e 3367 cfbd
00000020: 73c4 783f dfca 083e 4dba 77bf 1cff 5a3e
00000030: 9cce 7b3f c02c d33d 7363 17be 9ad4 f73d
00000040: 13a2 6b3e 5132 773f b051 673f 07c7 c0be
00000050: c540 513e e0df bd3e d020 6d3f edf8 883d
00000060: 149d 5bbe d37b 7b3c 2803 7a3f b33b 9c3e
00000070: 75b4 6bbf d70f 79be 0c76 733f 690d 903e
00000080: b624 033e aab0 4abd ae70 8abe 6c23 763f
00000090: 87f8 e73e bc37 5dbf 665c 60be 6004 643f
000000a0: 8661 db3e 528c 1b3e fa1e 19bd b927 87be
000000b0: eabb 763f 1b6a 463f b75a 20bf c77d aa3d
000000c0: 6a99 1f3f 568d 473f f86e 793d c404 d3bd
000000d0: f60a 9a3b 77a2 7e3f 8d30 d83e 98c6 66bf
000000e0: 80fc c23d acd9 253f 4a44 bf3e e7f3 293f
000000f0: e04f 22bf c9e2 5fbe b2e3 3d3f 6996 353f
00000100: abb0 33bf f048 84bd 5cc6 163f f032 0a3f
00000110: 03f6 193f 2148 c6be 1ae5 edbe f6db 4b3f
00000120: ec27 723f 1f61 a1be db1b 9d3d 97e0 7c3e
00000130: 3e5f 5a3f b765 eb3e 5c66 57be c8f7 d4be
00000140: 3c7d 623f 88a0 9c3e c828 70bf 6c34 263e
00000150: 3e21 683f 7298 ad3e 6757 803e 7b93 94be
00000160: b25e 903d 9551 743f 822f 1a3f 2fe6 49bf
00000170: acec fcbd f19d 323f e4cb e33e a6bb 0f3f
00000180: 3b95 c6be 4241 d9be 1478 513f 486b 433f
00000190: 9a50 25bf ab38 893c 8e76 1c3f f3fa 3a3f
000001a0: bc1f 9c3e 6e2a 56be 70df 63be 2fc5 733f
000001b0: ddbb 773f 8896 383d b6f4 7dbe c9af 52be
000001c0: f3a8 353f ca83 2cbf 931c 153e d301 343f
000001d0: fb2a 323f 6515 733f 1919 8fbe e3b7 11be
000001e0: 92eb 9e3e b9bb 453f 99db 0d3f 2727 38bd
000001f0: 0002 12bf 02f7 513f 6afb 703f ac5e 8ebe
00000200: 5bcf 43be 342d 4f3d ed2d 2d3f 9f16 3cbf
00000210: 3cd5 aa3e 1094 2e3f df9e 263f

jaw_pose f4 [1, 3, 3]
0.9999581 -0.0091068 -0.0009158095 0.008988137 0.995938 -0.08959211 0.001727987 0.089580126
0.9959781
00000000: 41fd 7f3f b034 15bc ef12 70ba fb42 133c
00000010: cbf5 7e3f 117c b7bd 9f7d e23a c975 b73d
00000020: 6cf8 7e3f

betas f4 [10]
-0.09862144 -0.37303004 1.8893872 -1.8670053 -1.0307195 -1.988826 -0.37816322 -0.5256615
0.5459906 0.08101881
00000000: 0afa c9bd cbfd bebe 71d7 f13f 08fa eebf
00000010: 9eee 83bf da91 febf 9c9e c1be c191 06bf
00000020: 0ac6 0b3f 31ed a53d

expression f4 [10]
2.0975702 0.9557074 -1.0713099 -0.38559568 -1.2723124 -0.7523166 -0.6087526 0.35950238
0.18186502 0.16645291
00000000: 973e 0640 3da9 743f af20 89bf cc6c c5be
00000010: 22db a2bf d297 40bf 36d7 1bbf b210 b83e
00000020: d33a 3a3e a272 2a3e

vertices f4 [10475, 3]
0.05161253 -0.92054963 0.033883628 0.05559671 -0.91956425 0.03233291 0.05637457 -0.92081153
0.033005245 0.05207951 -0.9217701 0.03395333 0.064295545 -0.91858804 0.04365608 0.06371983
-0.922927 0.04030338 0.063987195 -0.92566884 0.041050475 0.063974515 -0.9247843 0.043959923
0.018277477 -0.87331384 0.09142574 0.003674047 -0.87217283 0.09746234 0.0037854835 -0.8628262
0.09461666 0.01785996 -0.8627567 0.087439045 0.035579324 -0.8427894 0.062497698 0.030168928
-0.8492397 0.06872818 0.029288838 -0.8395339 0.072195694 0.038987495 -0.8351631 0.059457317
0.030929096 -0.9994283 -0.03821344 0.038453 -0.99600494 -0.033635557 0.036453582 -0.9912913
-0.038303696 -0.07200474 -0.9283414 0.039092436 -0.076137245 -0.92793775 0.037990034 -0.07659478
-0.92949134 0.038578693 -0.07198271 -0.92974025 0.039269555 -0.083263576 -0.9278954 0.04987788
-0.08252734 -0.9321102 0.046906933 -0.08213052 -0.9348693 0.04748769 -0.08187049 -0.9338934
0.050120614 0.029142942 -0.9936056 -0.041803285 0.08595264 -0.93651235 0.059750058 0.08583476
-0.9334866 0.060319748 0.08583512 -0.93241096 0.058039345 0.08581367 -0.93500876 0.05764498
0.08064054 -0.91876096 0.054095395 0.08085337 -0.92569447 0.0574572 0.082317 -0.9281539
0.058699004 0.082512036 -0.9260982 0.057416514 0.0797752 -0.9093068 0.048203494 0.07869039
-0.91016674 0.048009466 0.08067626 -0.91406095 0.050842434 0.081717476 -0.9134234 0.051533394
0.06301621 -0.8969878 0.021085773 0.06601466 -0.898643 0.023260903 0.066237435 -0.89609164
0.02407308 0.061354585 -0.8953016 0.022506326 0.058481142 -0.895997 0.023526438 0.06312819
-0.8946159 0.027337726 0.06283575 -0.897244 0.028787497 0.05908607 -0.8977977 0.025637329
0.08097744 -0.95002556 0.047628433 0.081202716 -0.9466711 0.046188176 0.07928829 -0.9465576
0.043476693 0.07909401 -0.9499967 0.044604495 0.064418234 -0.91522264 0.048916057 0.062341373
-0.9097514 0.045354255 0.06887413 -0.91313607 0.04969546 0.06949906 -0.91588634 0.050678153
0.077998236 -0.9379755 0.052875623 0.07932702 -0.9381583 0.056084193 0.07982019 -0.93555295
0.056878284 0.07827717 -0.93467695 0.054012373 0.08231935 -0.9382234 0.061319955 0.08237617
-0.93483806 0.061946563 0.061582737 -0.9058702 0.021341972 0.060213316 -0.9096819 0.021414079
0.060690552 -0.9110244 0.023130368 0.061639495 -0.90966094 0.024169862 0.06279802 -0.9193064
0.039837863 0.06472429 -0.92373395 0.039081305 0.074785486 -0.90074974 0.040508445 0.07492231
-0.9029968 0.040037554 0.07740149 -0.9058373 0.04440502 0.07725775 -0.904093 0.045270547
0.07204896 -0.9059425 0.039241098 0.074546695 -0.9074186 0.043317717 0.07562122 -0.9075167
0.04518053 0.074488014 -0.9060356 0.042605594 0.0818021 -0.9410793 0.05281142 0.0798323
-0.9444549 0.048582323 0.08088588 -0.94390535 0.04829555 0.082827546 -0.94044757 0.052572794
0.07208747 -0.92776835 0.05433493 0.071192965 -0.93331724 0.053683456 0.070319556 -0.93267435
0.05321093 0.07130162 -0.9278784 0.053678915 0.081947155 -0.9361813 0.05873187 0.08211617
00000000: a967 533d 24a9 6bbf 8fc9 0a3d 60b9 633d
00000010: 9068 6bbf 836f 043d 05e9 663d 4eba 6bbf
00000020: 8230 073d 5351 553d 20f9 6bbf a612 0b3d
00000030: 62ad 833d 9628 6bbf b8d0 323d 8b7f 823d
00000040: f244 6cbf 2815 253d b80b 833d a2f8 6cbf
00000050: 8b24 283d 1205 833d aabe 6cbf 520f 343d
00000060: a6ba 953c 7f91 5fbf 6b3d bb3d 48c8 703b
00000070: b846 5fbf 569a c73d e015 783b 2ee2 5cbf
00000080: 61c6 c13d 0d4f 923c a0dd 5cbf 3e13 b33d
00000090: a0bb 113d 0cc1 57bf 96fd 7f3d d424 f73c
000000a0: c667 59bf 5cc1 8c3d 25ef ef3c b2eb 56bf
000000b0: 56db 933d 5ab1 1f3d 40cd 55bf 8489 733d
000000c0: 045f fd3c 88da 7fbf b285 1cbd e580 1d3d
000000d0: 2efa 7ebf 70c5 09bd 5a50 153d 44c5 7dbf
000000e0: 56e4 1cbd 3977 93bd c8a7 6dbf 641f 203d
000000f0: d8ed 9bbd 548d 6dbf 709b 1b3d b9dd 9cbd
00000100: 25f3 6dbf b104 1e3d ac6b 93bd 7503 6ebf
00000110: 1dd9 203d 1886 aabd 8e8a 6dbf bf4c 4c3d
00000120: 1804 a9bd c69e 6ebf 7c21 403d 0c34 a8bd
00000130: 9853 6fbf 7482 423d b7ab a7bd a313 6fbf
00000140: 464b 4d3d 2ebd ee3c f05c 7ebf ec39 2bbd
00000150: f007 b03d 46bf 6fbf 7abc 743d 22ca af3d
00000160: faf8 6ebf d711 773d 53ca af3d 7cb2 6ebf
00000170: aaba 6d3d 14bf af3d bc5c 6fbf 241d 6c3d
00000180: de26 a53d eb33 6bbf 2293 5d3d 7496 a53d
00000190: 50fa 6cbf 3e58 6b3d d195 a83d 7e9b 6dbf
000001a0: 5e6e 703d 12fc a83d c614 6dbf 942d 6b3d
000001b0: 2e61 a33d 55c8 68bf 0771 453d 6d28 a13d
000001c0: b000 69bf 93a5 443d 9839 a53d e6ff 69bf
000001d0: 2840 503d 7e5b a73d 1ed6 69bf ae14 533d
000001e0: a50e 813d fea0 65bf 12bc ac3c b232 873d
000001f0: 780d 66bf a68d be3c 7ea7 873d 4366 65bf
00000200: e834 c53c f24e 7b3d 7c32 65bf 305f b83c
00000210: ec89 6f3d 0f60 65bf 84ba c03c 5a49 813d
00000220: 8c05 65bf 5ef3 df3c 08b0 803d c8b1 65bf
00000230: c2d3 eb3c 3c04 723d 12d6 65bf 6005 d23c
00000240: 80d7 a53d e034 73bf 0816 433d 9c4d a63d
00000250: 0a59 72bf d02f 3d3d e661 a23d 9951 72bf
00000260: 9e14 323d 0afc a13d fc32 73bf 34b3 363d
00000270: b5ed 833d 084c 6abf 345c 483d ab59 7f3d
00000280: 78e5 68bf 62c5 393d e10d 8d3d 49c3 69bf
00000290: 778d 4b3d 8655 8e3d 8777 6abf e593 4f3d
000002a0: 8abd 9f3d 2a1f 70bf 1c94 583d 3476 a23d
000002b0: 242b 70bf 8ab8 653d c578 a33d 6680 6fbf
000002c0: 34f9 683d c84f a03d fd46 6fbf 143c 5d3d
000002d0: 0c97 a83d 692f 70bf a22a 7b3d d6b4 a83d
000002e0: 8c51 6fbf aebb 7d3d 2e3e 7c3d 1ce7 67bf
000002f0: 5cd5 ae3c 3da2 763d eae0 68bf 946c af3c
00000300: a896 783d e538 69bf e67b bd3c b279 7c3d
00000310: 8adf 68bf e0ff c53c 409c 803d aa57 6bbf
00000320: 072d 233d 2b8e 843d d479 6cbf b813 203d
00000330: 2229 993d 8997 66bf 2fec 253d de70 993d
00000340: cc2a 67bf 6bfe 233d ac84 9e3d f4e4 67bf
00000350: 0ae2 353d 5039 9e3d a472 67bf 9c6d 393d
00000360: 688e 933d d9eb 67bf 46bb 203d f0ab 983d
00000370: 964c 68bf eb6d 313d 4cdf 9a3d 0453 68bf
00000380: 380f 393d 2c8d 983d f3f1 67bf 3483 2e3d
00000390: dc87 a73d 93ea 70bf ca50 583d 1e7f a33d
000003a0: ccc7 71bf 42fe 463d 7fa7 a53d c8a3 71bf
000003b0: 8ed1 453d 7da1 a93d 2cc1 70bf 9256 573d
000003c0: 98a2 933d 3a82 6dbf 4e8e 5e3d 9ecd 913d
000003d0: e1ed 6ebf 2fe3 5b3d b303 903d bfc3 6ebf
000003e0: b4f3 593d 9506 923d 7089 6dbf 6cde 5b3d
000003f0: e9d3 a73d 94a9 6fbf d490 703d 862c a83d

joints f4 [144, 3]
-0.0022105724 -0.2599881 0.026702749 0.05285132 -0.16216436 0.03510578 -0.06050124 -0.14976142
0.030108735 -0.0046153804 -0.3673846 0.071904436 0.15662742 0.14825675 -0.11422114 -0.13986468
0.15505265 -0.09947711 0.0020213337 -0.5209042 0.06498258 0.12890774 0.5208313 -0.07898045
-0.11580484 0.53216976 -0.06439219 -0.010982342 -0.57657963 0.035726584 0.19032212 0.57732856
-0.1897201 -0.17371978 0.59553784 -0.1711175 -0.026615 -0.74636525 0.038684934 0.03342787
-0.66424316 0.025686055 -0.06105951 -0.66258264 0.03505203 0.0012143292 -0.91570914 0.028536342
0.16574317 -0.69560415 0.011111686 -0.17732988 -0.68711287 0.023137711 0.21524212 -0.44797456
-0.01398482 -0.23493367 -0.44260657 -0.048195757 0.20439044 -0.6066645 -0.1969481 -0.20761736
-0.57123893 -0.24801704 -0.015976656 -0.9149278 0.03463852 0.022721209 -0.97145915 -0.028170392
-0.04109445 -0.97567624 -0.025870658 0.20466655 -0.6974743 -0.24014513 0.1870209 -0.72330165
-0.2477901 0.17012233 -0.72116065 -0.23279056 0.18983895 -0.69078195 -0.25945804 0.16498347
-0.70678705 -0.25046244 0.1572329 -0.6971211 -0.23008461 0.15811947 -0.6532741 -0.26286256
0.14652085 -0.66584814 -0.25233817 0.14040361 -0.6682491 -0.23397125 0.17251122 -0.6703887
-0.26433152 0.15283626 -0.6878954 -0.25265738 0.14396404 -0.68249434 -0.23097132 0.20597312
-0.6564271 -0.19437222 0.19607046 -0.685564 -0.19253898 0.19582343 -0.7106998 -0.20006762
-0.20649555 -0.66732997 -0.27245647 -0.19070673 -0.69529974 -0.27015832 -0.1834879 -0.6880874
-0.2498853 -0.18553923 -0.6655662 -0.28643692 -0.16844307 -0.68232584 -0.26689923 -0.16817603
-0.67136395 -0.24572091 -0.14927828 -0.63233167 -0.28419334 -0.1406933 -0.6447785 -0.27097413
-0.14309533 -0.64162594 -0.25187424 -0.16479602 -0.64804095 -0.28800863 -0.1537845 -0.667279
-0.26961055 -0.15330932 -0.6597335 -0.24678525 -0.21617515 -0.6188549 -0.23587263 -0.22131515
-0.64837074 -0.22861256 -0.22071645 -0.6745996 -0.22909802 -0.012240155 -0.9518584 -0.08555086
-0.04197325 -0.9798852 -0.038511716 0.025779448 -0.9754943 -0.040424176 -0.08179701 -0.92842543
0.046344355 0.063987195 -0.92566884 0.041050475 0.17623892 0.5694957 -0.27123427 0.23284179
0.5777564 -0.20813961 0.14283672 0.5604549 -0.012372522 -0.1460013 0.58874524 -0.24911098
-0.20714454 0.5993856 -0.18043743 -0.10422032 0.5823012 0.00783794 0.1785183 -0.73473287
-0.20634109 0.15651566 -0.71593326 -0.21160656 0.15932111 -0.6834245 -0.20718831 0.14829683
-0.672596 -0.20884007 0.14441264 -0.67051405 -0.21249378 -0.20781252 -0.7033455 -0.22338945
-0.18217169 -0.67772436 -0.22882491 -0.17586036 -0.65398777 -0.22802693 -0.16296366 -0.64685684
-0.23042274 -0.15362999 -0.6360652 -0.236265 -0.07050572 -0.977838 -0.012084035 -0.060963094
-0.9959157 -0.02300598 -0.046001002 -1.00228 -0.0362623 -0.030411758 -1.0015538 -0.044426594
-0.017531093 -0.99727285 -0.04802969 0.0006760415 -0.99622464 -0.048131026 0.014075514 -0.99903995
-0.045447227 0.030212449 -0.9982039 -0.039164633 0.04524033 -0.9899434 -0.027667731 0.053246215
00000000: 40df 10bb 291d 85be b9bf da3c a07a 583d
00000010: 6a0e 26be 14cb 0f3d 26d0 77bd 0f5b 19be
00000020: 98a6 f63c 9e3c 97bb d619 bcbe a242 933d
00000030: f062 203e 9ed0 173e c6ec e9bd b038 0fbe
00000040: 1fc6 1e3e a8ba cbbd 5a78 043b fa59 05bf
00000050: 9615 853d 6400 043e 3355 053f 81c0 a1bd
00000060: 172b edbd 473c 083f 0de0 83bd 48ef 33bc
00000070: b99a 13bf 0a56 123d cde3 423e cecb 133f
00000080: fc45 42be 99e3 31be 2b75 183f 6d39 2fbe
00000090: b307 dabc cb11 3fbf 1874 1e3d aaeb 083d
000000a0: d70b 2abf 906b d23c 8919 7abd 049f 29bf
000000b0: b892 0f3d 202a 9f3a ea6b 6abf 0cc5 e93c
000000c0: 94b8 293e 1d13 32bf ca0d 363c f795 35be
000000d0: a1e6 2fbf 4c8b bd3c 6e68 5c3e ec5c e5be
000000e0: 9620 65bc 7492 70be 549d e2be ea68 45bd
000000f0: ba4b 513e 5d4e 1bbf c3ac 49be a599 54be
00000100: b73c 12bf 2ef8 7dbe 7ae1 82bc b538 6abf
00000110: 1fe1 0d3d d421 ba3c 8cb1 78bf 98c5 e6bc
00000120: a752 28bd ebc5 79bf b4ee d3bc 1c94 513e
00000130: ad8d 32bf 9be8 75be 6882 3f3e 4c2a 39bf
00000140: b0bc 7dbe 8c34 2e3e fc9d 38bf a660 6ebe
00000150: 2465 423e 16d7 30bf afd7 84be 6df1 283e
00000160: ffef 34bf 9d3c 80be a901 213e 8776 32bf
00000170: 4d9b 6bbe 12ea 213e f93c 27bf ec95 86be
00000180: 9009 163e 0675 2abf 7832 81be f7c5 0f3e
00000190: 5f12 2bbf 2996 6fbe c8a6 303e 989e 2bbf
000001a0: 7656 87be 1c81 1c3e ea19 30bf 4f5c 81be
000001b0: 4f6b 133e f3b7 2ebf bf83 6cbe 9eea 523e
000001c0: 9b0b 28bf 8309 47be b2c6 483e 1f81 2fbf
000001d0: f028 45be f085 483e 6cf0 35bf 87de 4cbe
000001e0: 9273 53be 23d6 2abf 6a7f 8bbe a048 43be
000001f0: 2aff 31bf 3152 8abe 41e4 3bbe 7f26 30bf
00000200: efe1 7fbe fffd 3dbe 8c62 2abf dca7 92be
00000210: 577c 2cbe e8ac 2ebf 04a7 88be 5636 2cbe
00000220: 82de 2bbf 439e 7bbe 68dc 18be 7de0 21bf
00000230: ca81 91be e811 10be 3410 25bf 1fbd 8abe
00000240: 9587 12be 9941 24bf a9f5 80be 4ac0 28be
00000250: 03e6 25bf de75 93be af79 1dbe ccd2 2abf
00000260: 650a 8abe 1efd 1cbe 4be4 28bf 46b5 7cbe
00000270: 055d 5dbe 466d 1ebf 9888 71be 70a0 62be
00000280: a0fb 25bf 6919 6abe 7e03 62be 8fb2 2cbf
00000290: ac98 6abe ee8a 48bc feac 73bf 4a35 afbd
000002a0: 25ec 2bbd c2d9 7abf 76be 1dbd 6c2f d33c
000002b0: ffb9 79bf d293 25bd 3185 a7bd 4aad 6dbf
000002c0: 94d3 3d3d b80b 833d a2f8 6cbf 8b24 283d
000002d0: fa77 343e 78ca 113f 38df 8abe 146e 6e3e
000002e0: d8e7 133f 8d22 55be ca43 123e f979 0f3f
000002f0: 1eb6 4abc 5d81 15be 02b8 163f f316 7fbe
00000300: b31d 54be 5671 193f 97c4 38be 7771 d5bd
00000310: b111 153f b46a 003c 80cd 363e 7417 3cbf
00000320: 144b 53be a445 203e 6747 37bf 64af 58be
00000330: 1325 233e e8f4 2ebf 2c29 54be 20db 173e
00000340: 402f 2cbf 2cda 55be e8e0 133e cfa6 2bbf
00000350: f897 59be cecc 54be 730e 34bf 34c0 64be
00000360: 378b 3abe 587f 2dbf 1451 6abe bd14 34be
00000370: be6b 27bf e47f 69be f2df 26be 6998 25bf
00000380: f0f3 6bbe 2e51 1dbe 2bd5 22bf 74ef 71be
00000390: 4e65 90bd 9753 7abf 1efc 45bc 70b4 79bd
000003a0: 55f4 7ebf 0977 bcbc 8c6b 3cbd b64a 80bf
000003b0: c787 14bd 1422 f9bc ea32 80bf a9f8 35bd
000003c0: 5e9d 8fbc 464d 7fbf c8ba 44bd 6138 313a
000003d0: 9408 7fbf 0a25 45bd fc9c 663c 15c1 7fbf
000003e0: df26 3abd 1980 f73c 4a8a 7fbf 186b 20bd
000003f0: ed4d 393d ee6c 7dbf 70a7 e2bc b418 5a3d

transl f8 [3]
-0.0005412357859313488 0.6192209720611572 4.528677940368652
00000000: 0000 0000 37bc 41bf 0000 0080 a8d0 e33f
00000010: 0000 00c0 5d1d 1240

proj_joints f4 [144, 2]
-0.004982218 0.65040016 0.094708726 0.8275125 -0.11051894 0.8499683 -0.009336184 0.45595607
0.28259796 1.3895378 -0.25420845 1.4018419 0.0026797545 0.17800502 0.23241077 2.0640934
-0.2106475 2.084622 -0.020863729 0.07720322 0.34360304 2.166383 -0.31550395 2.1993515
-0.04916705 -0.23019792 0.059542082 -0.08151381 -0.1115297 -0.078507386 0.0012186525 -0.5367993
0.29910225 -0.13829365 -0.32204014 -0.122919984 0.38872135 0.31004593 -0.42633325 0.31976482
0.3690741 0.022733847 -0.37687638 0.08687269 -0.02990606 -0.5353846 0.0401574 -0.6377361
-0.075382456 -0.64537126 0.369574 -0.14167961 0.33762613 -0.18844068 0.30703083 -0.18456435
0.34272826 -0.12956296 0.29772678 -0.15854059 0.28369418 -0.14104012 0.28529936 -0.06165408
0.26429975 -0.08441965 0.25322434 -0.088766605 0.31135598 -0.09264046 0.27573398 -0.12433681
0.2596706 -0.11455803 0.3719396 -0.06736261 0.35401058 -0.12011569 0.35356334 -0.16562471
-0.37484533 -0.08710255 -0.34625927 -0.13774253 -0.3331894 -0.12468441 -0.33690336 -0.08390921
-0.30595034 -0.114252955 -0.30546686 -0.09440617 -0.271252 -0.023737248 -0.2557087 -0.04627253
-0.26005763 -0.04056476 -0.29934728 -0.052179296 -0.27941063 -0.08701028 -0.2785503 -0.0733489
-0.3923705 0.0006628183 -0.40167657 -0.052776393 -0.40059263 -0.10026438 -0.02314103 -0.60224843
-0.07697355 -0.6529917 0.04569442 -0.6450419 -0.14907546 -0.55982244 0.11487051 -0.55483156
0.31810507 2.1522014 0.420586 2.1671576 0.25762954 2.1358328 -0.26531896 2.1870532
-0.37602034 2.206318 -0.18967344 2.175386 0.32223195 -0.20913719 0.2823956 -0.17510004
0.28747496 -0.11624205 0.2675152 -0.096636795 0.2604828 -0.092867404 -0.37722972 -0.15230954
-0.33080634 -0.10592186 -0.31937954 -0.062946156 -0.29602975 -0.050035443 -0.27913088 -0.030496871
-0.1286323 -0.64928514 -0.11135514 -0.6820153 -0.084265895 -0.693538 -0.056041174 -0.6922232
-0.03272041 -0.68447244 0.00024406919 -0.6825746 0.024504151 -0.68767184 0.053720478 -0.68615806
0.08092884 -0.67120224 0.09542369 -0.63627493 -0.017874902 -0.66137695 -0.019511325 -0.64717376
-0.021279821 -0.63393205 -0.022390712 -0.6187971 -0.048178848 -0.59400994 -0.036975045 -0.58885306
-0.023530843 -0.58384037 -0.009125908 -0.58702195 0.0033143405 -0.5910373 -0.099960916 -0.6456321
-0.08328344 -0.65658844 -0.065494664 -0.6555892 -0.051336776 -0.6456999 -0.06627648 -0.6433093
-0.08288587 -0.6432281 0.015573302 -0.6419723 0.031238839 -0.65052336 0.049175482 -0.6498674
0.06511539 -0.6374961 0.046328668 -0.6364346 0.029595587 -0.63856024 -0.07629864 -0.53408694
-0.059874497 -0.55780596 -0.0379727 -0.5643273 -0.024716556 -0.5629498 -0.011128136 -0.56266516
0.010428567 -0.5543894 0.025488436 -0.5280175 0.009678991 -0.51229215 -0.01193376 -0.51051277
-0.027245333 -0.5103934 -0.042463522 -0.51175463 -0.06333176 -0.51587313 -0.07461952 -0.5326659
-0.037601672 -0.5519 -0.024877556 -0.55162054 -0.012073791 -0.55082464 0.024918271 -0.5282626
-0.011613753 -0.51948476 -0.026048914 -0.52073246 -0.04065365 -0.52139413 -0.14906083 -0.61633056
00000000: e041 a3bb a080 263f a6f6 c13d dcd7 533f
00000010: c157 e2bd 8697 593f cbf6 18bc 1373 e93e
00000020: aeb0 903e 60dc b13f 9c27 82be 8e6f b33f
00000030: d29e 2f3b f346 363e 17fd 6d3e 1b1a 0440
00000040: fab3 57be 726a 0540 69ea aabc b91c 9e3d
00000050: bdec af3e 05a6 0a40 bc89 a1be 2dc2 0c40
00000060: 6363 49bd 01b9 6bbe 66e2 733d b6f0 a6bd
00000070: af69 e4bd 7bc8 a0bd 31bb 9f3a ae6b 09bf
00000080: ee23 993e da9c 0dbe 72e2 a4be 79bd fbbd
00000090: 7c06 c73e 57be 9e3e 5a48 dabe 37b8 a33e
000000a0: 48f7 bc3e 553c ba3c f1f5 c0be 4fea b13d
000000b0: 8efd f4bc f70e 09bf 167c 243d ac42 23bf
000000c0: 1e62 9abd 0d37 25bf ce38 bd3e 7614 11be
000000d0: 55dd ac3e 98f6 40be 2533 9d3e 70fe 3cbe
000000e0: 147a af3e 27ac 04be a56f 983e 7758 22be
000000f0: 5d40 913e d26c 10be c212 923e fd88 7cbd
00000100: 4c52 873e 36e4 acbd 9fa6 813e 44cb b5bd
00000110: 0d6a 9f3e 48ba bdbd 012d 8d3e 4ca4 febd
00000120: 8bf3 843e 679d eabd de6e be3e 68f5 89bd
00000130: e040 b53e 37ff f5bd 4106 b53e 8699 29be
00000140: baeb bfbe d262 b2bd e548 b1be 610c 0dbe
00000150: cd97 aabe 8a5a ffbd 997e acbe 98d8 abbd
00000160: 86a5 9cbe 74fd e9bd 2766 9cbe 0658 c1bd
00000170: 8be1 8abe 9e74 c2bc 40ec 82be 4488 3dbd
00000180: 4626 85be 3c27 26bd 0c44 99be f5b9 55bd
00000190: e90e 8fbe 7232 b2bd 259e 8ebe f337 96bd
000001a0: c9e4 c8be fcc0 2d3a 8da8 cdbe 0f2c 58bd
000001b0: 7a1a cdbe 6957 cdbd 4292 bdbc f42c 1abf
000001c0: 4fa4 9dbd 772a 27bf 122a 3b3d 7721 25bf
000001d0: 3da7 18be 8650 0fbf 3b41 eb3d 7109 0ebf
000001e0: abde a23e abbd 0940 0c57 d73e b6b2 0a40
000001f0: 05e8 833e 7cb1 0840 e3d7 87be aef8 0b40
00000200: bd85 c0be 5034 0d40 c139 42be 8639 0b40
00000210: 96fb a43e 0f28 56be 2896 903e 6d4d 33be
00000220: eb2f 933e 5010 eebd c1f7 883e 83e9 c5bd
00000230: 005e 853e 4431 bebd 4124 c1be 08f7 1bbe
00000240: 735f a9be 8fed d8bd b785 a3be eae9 80bd
00000250: 3691 97be f7f1 4cbd 3eea 8ebe 93d4 f9bc
00000260: 30b8 03be 8d37 26bf 2a0e e4bd 8e98 2ebf
00000270: 9993 acbd b58b 31bf 6e8b 65bd 8a35 31bf
00000280: d605 06bd 9639 2fbf d3ec 7f39 36bd 2ebf
00000290: eebc c83c 430b 30bf 010a 5c3d 0ea8 2fbf
000002a0: 05be a53d e9d3 2bbf 7f6d c33d eae2 22bf
000002b0: 636e 92bc 0050 29bf 37d6 9fbc 2ead 25bf
000002c0: 0553 aebc 5f49 22bf ba6c b7bc 7d69 1ebf
000002d0: 2f57 45bd 0911 18bf 2573 17bd 13bf 16bf
000002e0: c1c3 c0bc 9076 15bf d584 15bc 1247 16bf
000002f0: 6835 593b 384e 17bf 4fb8 ccbd 2548 25bf
00000300: 8290 aabd 2e16 28bf 1122 86bd b2d4 27bf
00000310: 8346 52bd 974c 25bf f7bb 87bd ebaf 24bf
00000320: 11c0 a9bd 99aa 24bf 2a27 7f3c 4c58 24bf
00000330: 98e8 ff3c b388 26bf 3b6c 493d b65d 26bf
00000340: 385b 853d f232 23bf 21c3 3d3d 61ed 22bf
00000350: 7272 f23c af78 23bf 7642 9cbd ecb9 08bf
00000360: f63e 75bd 5fcc 0ebf 4389 1bbd c177 10bf
00000370: 607a cabc 7a1d 10bf c952 36bc d30a 10bf
00000380: 95dc 2a3c 77ec 0dbf 20cd d03c 282c 07bf
00000390: a194 1e3c 9425 03bf d185 43bc f7b0 02bf
000003a0: 9b31 dfbc 24a9 02bf 3bee 2dbd 5a02 03bf
000003b0: 15b4 81bd 4310 04bf 1ed2 98bd cb5c 08bf
000003c0: 3604 1abd 5249 0dbf 04cc cbbc 0137 0dbf
000003d0: 26d1 45bc d802 0dbf 6721 cc3c 383c 07bf
000003e0: 9c47 3ebc f4fc 04bf 8864 d5bc b94e 05bf
000003f0: 7184 26bd 167a 05bf 67a3 18be d7c7 1dbf

shift_x f8 []
-0.0072774801168356
00000000: 00e9 95b1 fdce 7dbf

shift_y f8 []
0.04284301391234985
00000000: f831 3bff 84ef a53f

focal_length_in_mm f8 []
135.13513513513513
00000000: 453e eb06 53e4 6040

center f4 [2]
675.6936 633.0669
00000000: 64ec 2844 4844 1e44
